src/Policy_Gradient/Progress_Checkpoint/Checkpoint.pth (torch, 224381 bytes, 182 tensors)

layers.0.weight f4 [100, 12]
00000000: dbbb 623e 270b 763e 2754 88bd 510c 883e
00000010: 304c 7fbd e169 733d 2c9d 11be 1e93 2f3e
00000020: 2d50 873e d723 53be cc3f 803e e015 6c3d
00000030: b93a 1c3e 6318 b3bc 449b a03d 6061 d0bd
00000040: 12a4 253e 71bb 92bc b4da 46be b094 453c
00000050: b5ba 48be f56e e93c 3bf8 6cbd f0a7 803e
00000060: 2857 69be b546 08be 1cf1 a6bd f7bc 31be
00000070: 2033 df3c 0afb 91be 247b 853e 0b1b 7bbe
00000080: c036 643e b8c6 443d acf7 bfbd 06ab 363e
00000090: d6db b13c d3d8 563e 0b5e 0c3c c8d5 eabd
000000a0: 077e 5e3d bc57 cfbd fa8d c33d 82d7 703e
000000b0: c399 183e aabc c9bd 52b5 423e f883 a13d
000000c0: 241e 163e f62b 34be 644f 92be 3e6b e4bd
000000d0: 09bc 62be d48d 723e 3c49 aa3d c4e2 f43d
000000e0: c8f9 ba3d c08d a4bb 7457 673e ba07 52be
000000f0: f0e5 943c dbc2 49be bc4c b63d e299 cbbd
00000100: c427 b53d 8458 76bd c82b 753e 6434 2fbe
00000110: 184c 30be d14e 30be 6cf0 843e 3005 c53d
00000120: afa5 6f3e 2886 90be 5628 a9be c41b 8abe
00000130: 9eab 73be 8c73 963d d456 7e3d 3300 483e
00000140: 6167 48be 9908 18be f7f4 463e 59d6 98bd
00000150: 8712 f83d 7ee8 fabd 5e4a e33d 8e7b 8ebe
00000160: ac91 4cbe 89ef 0a3d 8030 e13b e16c 02be
00000170: 4335 f13d 151c 803e d727 1fbe d9f3 ccbd
00000180: cff2 723e 76f0 febd 977b 04be 25de 9cbe
00000190: 6ece 44be 5fa6 393d 0456 81bd 8e41 72be
000001a0: 5044 94bc 3281 29be bc31 60be c76c 07be
000001b0: 995b 81be ce38 3cbe 6ebe 933e 0854 5f3d
000001c0: a42f b63d 30da 89be 0025 42be 5ec9 c4bd
000001d0: 30e5 383d c80d 82be 2abc febd ebf7 30be
000001e0: 00b6 513a 6afd dbbd 60df a3bc 424f 48be
000001f0: 94e6 4abe 9c74 2cbe 585e cabd 6650 69be
00000200: c0da 773e a0aa 6abd 0c56 7e3e 9c35 b83d
00000210: e650 7abe 6291 4c3e deaa a2bd fa9f e2bd
00000220: 225f 75be 48f0 92be 8826 a93d 3e25 81bd
00000230: a02b e63d 4297 72be ec76 5b3e 1efd 58be
00000240: 0086 dd39 b2f6 e33d 5771 4c3e a274 913e
00000250: 1182 a03e bc1b 37be 12f8 f23d f794 91bd
00000260: ed3f da3c fc5f 87be f835 5e3e 277f 83be
00000270: ed8e e93d ad57 7a3d 049e 5c3d 653e 49be
00000280: d496 633e 8aa9 c03c 4526 dfbb 6b73 96be
00000290: b724 b63d 9481 933a 5660 bbbd ed5e 953e
000002a0: 10cf 833d e48c 23be c99d 15be 40de 61bc
000002b0: b00d 253e c412 97bd f1a9 28be 5a74 cabd
000002c0: 7bd6 5cbe f0d7 d23d 14cf 643e 7e25 8bbe
000002d0: 886a 4b3a b492 a93d 8042 63bc 0a37 2dbe
000002e0: c658 ad3d 8bc6 af3d b78a 303d 7d64 efbd
000002f0: decf 0ebe dd0c d23d 7146 613c e637 9ebc
00000300: 97ab 1c3e a764 5d3e 5fa9 76bd a599 c5bd
00000310: e034 e0bc 6303 47bd cf64 243d e991 443d
00000320: de0d 98be 2c33 95bd e3b3 8b3e 66a4 113e
00000330: e03d 6bbc 9038 32be 04da 34be 5565 84be
00000340: 0eb6 c0bd 28a7 c73d ac7b 3c3e b27a 083e
00000350: fea5 82be c6c3 31be c09a 3abd d2f9 8e3e
00000360: 3add c03b ce0d e3bd b8f9 aa3d 3795 15be
00000370: a720 64be 3122 333e da63 2abe 5e87 c1bd
00000380: f464 a6be 16ef 6b3e fad0 813e 4fae 0f3e
00000390: d81d 4ebe 12df 91be 3315 70be 746e 5c3e
000003a0: beeb 0d3e 64c0 783e 90db 1a3e 38a1 953d
000003b0: 8043 39bb e1ce 60be c443 7dbe 003f 8abe
000003c0: 7c04 f23d bc21 11be b8f6 6dbd 0c1f 2abe
000003d0: ac76 57bd 520e 50be e026 41be 101c c43d
000003e0: 5ab4 afbd 1c7d 363e 0eaa bdbd 4cd8 58be
000003f0: ac9f 50bd ff4a 0fbe ecdf b4bd e0b4 8cbe
0.22141974 0.24027692 -0.06656676 0.26571897 -0.062328517 0.059427146 -0.14220113 0.17145965
0.26428357 -0.2061914 0.25048673 0.05763805 0.15256776 -0.021862214 0.078421146 -0.10174823
0.16175869 -0.017911645 -0.19419366 0.012059376 -0.19602473 0.028495291 -0.05785392 0.25128126
-0.22787154 -0.13308223 -0.08151457 -0.1735724 0.027246058 -0.2851184 0.2607051 -0.24522035
0.2228651 0.048041075 -0.093734115 0.17838678 0.021711271 0.2098115 0.0085673435 -0.11466557
0.054319408 -0.10124156 0.09548564 0.2351971 0.14902405 -0.09850438 0.1901448 0.07886499
0.14659935 -0.17594895 -0.28576195 -0.11153267 -0.22142042 0.23686916 0.083147496 0.119573146
0.09129673 -0.0050217807 0.22591954 -0.2051076 0.018176049 -0.19703238 0.08901355 -0.0994146
0.08845475 -0.06014301 0.23942482 -0.17109829 -0.17216527 -0.17217566 0.25964677 0.0962013
0.23403047 -0.28227353 -0.33038586 -0.26974308 -0.23795936 0.073462576 0.062094525 0.19531326
-0.19570686 -0.1484703 0.19429384 -0.074627586 0.12112909 -0.122513756 0.11098169 -0.2782864
-0.19977444 0.033919845 0.0068722367 -0.12736847 0.11777737 0.25021425 -0.15542541 -0.10007448
0.23725437 -0.12448208 -0.12937771 -0.30638233 -0.19219372 0.04532468 -0.06315234 -0.2365782
-0.01809898 -0.1655319 -0.21893972 -0.13225089 -0.25265196 -0.18381044 0.28856224 0.054523498
0.088958055 -0.26924276 -0.18959427 -0.0960872 0.045140445 -0.2540114 -0.12438233 -0.17282073
0.00079998374 -0.10741694 -0.020003974 -0.19561484 -0.19814521 -0.16841358 -0.09881276 -0.22784576
0.2420454 -0.057291627 0.24837512 0.089946 -0.24444923 0.19977334 -0.079427466 -0.11065669
-0.23962072 -0.28698945 0.082593024 -0.063059315 0.112387896 -0.23690513 0.21432084 -0.21190307
0.00042252243 0.11131038 0.1996511 0.28409296 0.31349233 -0.17881674 0.11863722 -0.07108491
0.02664181 -0.26440418 0.21700275 -0.25682947 0.11404214 0.06111877 0.053861633 -0.19652708
0.22225505 0.023518343 -0.006809982 -0.29384932 0.088937216 0.0011253827 -0.09149234 0.29173985
0.064359784 -0.15971714 -0.14610972 -0.013785899 0.16118503 -0.07376626 -0.16471078 -0.098854735
-0.21566193 0.10295093 0.22344619 -0.27177042 0.000775971 0.082799345 -0.013870835 -0.16915527
0.08464198 0.08582791 0.04310104 -0.116890885 -0.13946483 0.1025636 0.013749705 -0.019313764
0.15299831 0.21620427 -0.06022012 -0.09648446 -0.027368963 -0.048587214 0.0401352 0.047990713
-0.2969808 -0.07285151 0.2728568 0.1422287 -0.014358014 -0.1740439 -0.17661291 -0.2585856
-0.09409724 0.097486794 0.18406552 0.13328055 -0.25517267 -0.17359838 -0.045557737 0.27924973
0.0058857473 -0.110866174 0.08348411 -0.14607702 -0.22278081 0.17493512 -0.16639653 -0.09449647
-0.32498896 0.23040423 0.2535475 0.14031337 -0.20128572 -0.28490502 -0.23445587 0.2152651
0.1385946 0.24292141 0.15122819 0.07306141 -0.0028268993 -0.21953918 -0.24732882 -0.2700119
0.118172616 -0.14173025 -0.058096617 -0.16613406 -0.05260341 -0.20317963 -0.18862486 0.09575665
-0.08579321 0.17821163 -0.09260951 -0.2117626 -0.050933525 -0.13993452 -0.08831772 -0.27481747

layers.0.bias f4 [100]
00000000: d56d 14be ea27 1cbe a4dd d5bd 8e1a 853e
00000010: 441e dbbd faa6 53be c126 9c3d b3e8 90bd
00000020: 24b5 463e deb3 383e 26ca 873e e87c 58be
00000030: 2fc6 713e d6f0 4e3e 6efa 11be 9801 4c3e
00000040: 3a42 3d3e 802e 4f3b a974 d33d d6b2 cebd
00000050: 04e9 80be fc71 953d 95fb 343d b831 41be
00000060: 165e 0f3e d582 7cbe 9ef6 413e 3421 8f3e
00000070: 04f6 a03d e659 64be 94dc 0f3e 7880 493d
00000080: a36e b43d f4dd 7d3d 73ae 753e 321f febd
00000090: 30fd 84bd a6f7 bb3d 0cd2 81bc 9c9b 323e
000000a0: 2343 1bbe cd20 2dbd af7f 813d 96b5 dfbd
000000b0: bd2c 2c3e 885f 253b 4d9a 88be 0819 00bd
000000c0: ac12 06be 12da 84bb 506a 09bd 0a9c 92be
000000d0: 3877 57bd 6080 e2bc 6ed5 e0bd 9a08 563e
000000e0: 88ba c3bd 92e6 3d3e 9e1f 1d3d 5087 79be
000000f0: c211 813d 1cfa 743e b65a 41be 1212 3fbe
00000100: 7090 983e 2c85 6d3e 53ea 24be 456d 103e
00000110: b01d c9bd d5b8 91be 70ad b13c 13d1 0d3d
00000120: c056 b1bd 07f4 833d 4ac5 7cbe 2054 113e
00000130: 7f3e 5c3e d44c 1d3e a868 483d acf5 1b3e
00000140: 16e2 55be 34cc 91bd a0c3 e1bc c97f 24be
00000150: ab56 5abe f8d3 463e f734 293e 533b 86be
00000160: 0821 bc3d 5979 f53d 6dd0 903e 2cc2 0d3e
00000170: 10d9 6c3e 148e c1bd 14b4 0d3e ed7b 3d3e
00000180: 0014 a9be 6448 6dbe ba1e bf3a ecf3 ca3d
-0.14495023 -0.15249601 -0.10442665 0.25996822 -0.10699132 -0.20669165 0.07624579 -0.07075634
0.19405037 0.18037364 0.26521415 -0.21141398 0.23610757 0.20209059 -0.14255688 0.19922483
0.18482295 0.003161341 0.103249855 -0.10092704 -0.25177777 0.072971314 0.04418524 -0.18866622
0.14000735 -0.24659283 0.18941733 0.2795502 0.07859424 -0.22299919 0.14048988 0.049194783
0.08810165 0.06197925 0.23992328 -0.12408294 -0.06493604 0.091780946 -0.015847228 0.17442173
-0.1516233 -0.04226761 0.06323182 -0.10923307 0.16813941 0.0025233943 -0.26680222 -0.03127387
-0.1309306 -0.0040543163 -0.033548653 -0.28634673 -0.05260393 -0.027649105 -0.109782085 0.20901719
-0.095570624 0.18544987 0.03836023 -0.24368024 0.06302215 0.23923534 -0.1888226 -0.18659237
0.29797697 0.23195332 -0.16105013 0.14104183 -0.098201156 -0.28461328 0.021689147 0.034623217
-0.086591244 0.06443029 -0.24684635 0.14192247 0.21508215 0.15361339 0.048927933 0.15230435
-0.20887026 -0.07119027 -0.027559102 -0.16064371 -0.21322124 0.19416797 0.1652411 -0.26217136
0.09185988 0.11986036 0.28284016 0.13843602 0.23129678 -0.094509274 0.13838226 0.18504305
-0.3302307 -0.23172146 0.0014581301 0.09909806

layers.2.weight f4 [100, 100]
00000000: 0abb 9fbd 5cc0 7cbc 003a 18b9 9a58 06bb
00000010: 3019 5cbd c607 673d 6608 363d dba4 b7bd
00000020: 661f d8bc 0078 9139 6e87 033d dbc9 be3d
00000030: e853 8339 1617 4cbd 09f0 b73d 7a6c 85bd
00000040: 01bf 68bd 80b9 df3b ff71 d3bd 5049 323c
00000050: a8f3 8abd 1876 283c 6dc4 523d d8c9 623c
00000060: fab4 acbd 0d84 c2bd a464 9a3c b9a2 af3d
00000070: dfbb b5bd 589e a13d f8c1 96bd 506d cd3b
00000080: 6f7f 853d 3e82 473d 783a cdbd f65d 7d3d
00000090: eef0 553d de18 d6bc ee0a 943d e198 89bd
000000a0: 0ca4 bebc 44ee 9fbd 13a4 42bc f2e6 abba
000000b0: ffe6 9ebc 9ec2 acbd 6063 38bd 9253 0b3d
000000c0: f592 b3bd 5aeb 34bd 402c 11bb 83f4 25bd
000000d0: 920f 153d b033 d33b f2d1 2c3d 6a1a 11bd
000000e0: 87ba babd a9b3 903d 506c 65bc 0c9e eabc
000000f0: aa9c babd ec02 c03c 1a54 c3bd 54c2 d73c
00000100: 2ca2 b43c 92a6 b3bd b013 86bd 1b38 cdbd
00000110: 1d8d 693d cf1a ae3d 6021 cd3b 6842 8a3d
00000120: 50ee 08bd b66b ffbd 3a12 0f3d a9ad 043c
00000130: 336a 913d ef58 d9bc 3bf5 9c3d bd44 023d
00000140: 553a 943d e409 02be e9a4 a83d 1595 aebd
00000150: 019b b73d e0ca 87bb 42ef ebbd 44d0 e33c
00000160: d8be a6bc 4bdc efbd b380 80bd 00e2 78bc
00000170: be82 523d acd8 fbbc c634 0e3d 209f 21bc
00000180: 7302 ccbb f4bf 9c3c ff6f bdbd a4c2 e0bd
00000190: 362a 64bd ec63 e1bd 6704 3fbd 8349 7fbc
000001a0: 18e2 86bd 83e6 29bd c28e abbc 0db1 3cbc
000001b0: 1446 a0bd 2074 9d3b 70f7 65bc a449 ea3c
000001c0: f13f b6bc e3d6 8fbd ca04 0dbd e8a6 aebc
000001d0: dbe5 aebd 1843 003c 7a0a edbc 82ea 1e3d
000001e0: 68e0 c13c d944 993d 9f05 1e3d ea53 97bd
000001f0: 4a18 373d 5e69 8abd bf77 09bd 2ca1 04bd
00000200: a36b 1bbd 94d4 9f3b e731 bc3d 727a 6a3d
00000210: f4a4 733b af15 923d 7fc2 e4bd 3831 843c
00000220: af1b 833d 3e4d 453d d34c b8bd 73a3 693c
00000230: e757 69bd 1087 d9bc 50a5 23bd 63c9 d9bd
00000240: b040 f1bd 8d1d b3bd 4add 393d 965d 3b3d
00000250: ab20 b2bd fb63 78bd 4019 d63a 0711 b1bd
00000260: 7eca 663d 777e b93d 1a33 f5bb e441 b5bd
00000270: 3869 97b9 beb0 143d b316 653d 93ef 59bd
00000280: 46ca d9bd 42f5 333d 6000 cc3b 6075 05bd
00000290: cbad 7cbd 3d32 53bd f5c8 a53d 2886 25bd
000002a0: 1748 563d 8dd0 b63d d08b 4f3c 5347 223c
000002b0: 602a dfbb d9b8 3e3d f58a b8bd d545 9b3c
000002c0: fb72 17bd b2f5 d13c 0085 e9b9 3278 87bd
000002d0: 80dd 30bc 99e4 f43c 5e3d 8ebd 3474 81bd
000002e0: 747f b7bc 6c92 14bd 5fd9 843c 01d3 893d
000002f0: 6878 2fbc 019a 953d b028 74bd 94b8 90bd
00000300: 292b 81bd fe19 8dbd fcc1 a1bd c165 bebd
00000310: b245 83bd 64cf d53c c2e7 2c3d 3425 9c3d
00000320: 8ee9 a43d 577b 25bc 88f6 9e3c 1a70 82bd
00000330: ae51 1e3d e35e c4bd 8ab2 b13c a098 ddbb
00000340: b44c da3c 72f9 153d a00c 3cbd 7dbd af3d
00000350: ba5d 3d3d 401a 7f3d c065 583c 9789 753d
00000360: 02aa 833d 22a5 393d 41ea 943d b495 94bc
00000370: d5a9 863d 34be bc3c 7adc 953c 9379 c73d
00000380: 4c7f b93c ac07 18bd 2015 4ebc cca0 e63c
00000390: ec1f 8a3c f7b4 8dbd ef76 a03d 3617 763d
000003a0: 590d 8abd a19f 5abc 2c5e 46bc be5a 80bd
000003b0: 00f8 6e3c 092c 21bd 1c98 8fbd 924d 0fbd
000003c0: d40a 12bd bb0a be3d c428 f53c 91c0 c43d
000003d0: c1c6 c93c 328b b33c 4a62 283d f499 8c3c
000003e0: a0b8 a0bd a032 8fbd 8079 c6bc 400b c53a
000003f0: 624d 1a3d 3eb7 1d3d ee51 8a3d 087e 843c
-0.07799347 -0.015426721 -0.00014517456 -0.0020499588 -0.05373496 0.056403898 0.044441603 -0.089669906
-0.02638216 0.00027745962 0.032111578 0.093158446 0.00025048782 -0.049826704 0.0898133 -0.06514831
-0.05682278 0.0068275332 -0.103244774 0.010881737 -0.06784755 0.010282062 0.051456857 0.013842069
-0.08432956 -0.09497843 0.018846817 0.08575959 -0.08873724 0.0789153 -0.07361215 0.0062691346
0.06518447 0.048708193 -0.10020918 0.061857186 0.05223172 -0.026134904 0.07228647 -0.067186125
-0.023271583 -0.078091174 -0.011879939 -0.0013115092 -0.019397257 -0.08435558 -0.045016646 0.034015246
-0.08768264 -0.04416976 -0.002215162 -0.040516388 0.036391802 0.0064453706 0.042192407 -0.03542558
-0.091176085 0.070655175 -0.0140028745 -0.028639816 -0.091119125 0.023438893 -0.095375255 0.02633778
0.022049986 -0.08772005 -0.06546724 -0.10020467 0.05701934 0.08501207 0.006260082 0.06750947
-0.033430398 -0.12471716 0.03492949 0.008098044 0.07100334 -0.026531665 0.076639615 0.031803835
0.072376885 -0.12699085 0.08234579 -0.08524529 0.089651115 -0.0041440576 -0.11520244 0.02780927
-0.020354673 -0.117119394 -0.062745474 -0.015190601 0.051394217 -0.030742966 0.034718297 -0.0098645985
-0.006225878 0.0191345 -0.09249877 -0.10974625 -0.055704318 -0.11005387 -0.046635058 -0.015581491
-0.06586093 -0.0414796 -0.020942096 -0.011516822 -0.07825866 0.004805103 -0.0140360445 0.028599568
-0.022247287 -0.07023408 -0.034428395 -0.021319821 -0.08539935 0.007828496 -0.02893566 0.038797863
0.023666576 0.07483835 0.03857958 -0.07389052 0.0447009 -0.067583784 -0.033561464 -0.032380268
-0.037944447 0.004877636 0.091892056 0.05724568 0.0037177177 0.07133042 -0.1116991 0.01613675
0.064017646 0.048169367 -0.08999028 0.014260161 -0.056968596 -0.02655366 -0.039952576 -0.106341146
-0.11779916 -0.08745871 0.045377053 0.045743547 -0.08697637 -0.060642224 0.0016334429 -0.08645826
0.056345455 0.090573244 -0.0074828984 -0.08850458 -0.00028879358 0.036301367 0.05592985 -0.05320699
-0.10634284 0.043935068 0.0062256306 -0.03258264 -0.06168918 -0.051561583 0.0809497 -0.040411144
0.052314844 0.08926497 0.012667611 0.0099047 -0.0068104714 0.046563003 -0.09010879 0.018954197
-0.03697489 0.025629852 -0.00044540316 -0.06614722 -0.010794997 0.02989416 -0.069452986 -0.06320992
-0.022399642 -0.03627245 0.016216932 0.06729699 -0.010709859 0.073047645 -0.059609115 -0.070664555
-0.0630706 -0.06889723 -0.07898328 -0.09296752 -0.06409778 0.026099868 0.04221321 0.076242834
0.080523595 -0.010100207 0.019404665 -0.06369038 0.038652115 -0.09588411 0.02169158 -0.006762579
0.026647903 0.036614843 -0.045910478 0.08581064 0.046231963 0.062280893 0.013207853 0.05994567
0.06428911 0.0453235 0.07271243 -0.01813779 0.06575362 0.023039915 0.018293608 0.09739985
0.022643708 -0.03711669 -0.012578279 0.028152846 0.016860925 -0.06919282 0.07835185 0.06008073
-0.06740827 -0.013343723 -0.012107413 -0.06267308 0.014585495 -0.039348636 -0.070114344 -0.034986086
-0.035654858 0.092793904 0.029926665 0.096070416 0.024630906 0.02191696 0.04110936 0.017163254
-0.078477144 -0.06992078 -0.024227858 0.001503326 0.037671454 0.03850483 0.06753908 0.016173378

layers.2.bias f4 [100]
00000000: 948d 3e3d 4999 483d 72fc 8e3d fb8e 4fbb
00000010: 047a 613c 9412 33bd 90f7 58bd 347c f93c
00000020: 1f62 95bd 3c4e d33c d735 52bd 9775 2dbd
00000030: 4056 a1bd 98e4 dcbc 68e3 9c3c 3632 d7bc
00000040: 3093 04bc bc3c 133d a92b 923d e36d 2fbd
00000050: ae93 97bd 59b7 9d3d 12c2 b9bd 6d12 9ebd
00000060: bbc2 fdbd c50c 84bd a095 8abd 7dac c0bc
00000070: f9d1 84bd f7b3 0f3d e24b f0bd 7294 9abd
00000080: 72d6 bcbd 1e1e 05be 28c2 c63c 65c6 8dbd
00000090: ecfa b2bc 043f bebd 4c34 cdbb f77a 2bbd
000000a0: 1c55 033d b75f 35bd cedc a5bd 2c8c c73c
000000b0: 012a ba3d cec8 3b3d d028 74bc 4046 923c
000000c0: 9a81 54bd 9860 20bc 53b3 a7bc 0d5d 6fbd
000000d0: ee59 67bd 39b9 3f3d a366 8abc bab8 9b3d
000000e0: ab0f 9cbd eda8 2bbd f05d c1bd b97c bf3b
000000f0: f026 46bd 68e0 bebd 74a0 a0bc 401c 1dbd
00000100: e39a 77bd d155 013d 9aad 76bd b286 4c3d
00000110: 2c83 793d c812 033d 5679 a8bd cb26 0a3d
00000120: 3cd6 8bbd cf8e af3d 3801 88bc 8333 38bd
00000130: e067 da3b 49f9 903d ca47 4abc ae2c ff3c
00000140: ecca bf3c f3d5 b6bd 714b d7bd 22a7 e83d
00000150: f27f 863d fbce 873d a9f1 c53d 3455 87bd
00000160: 4fdd 8fbd 0e3b cdbc fa64 63bd ecd7 c7bc
00000170: 9278 3c3d e2aa e1bc acb2 953c c013 d2bc
00000180: f112 6e3d edbd bbbc c466 0d3d be71 473d
0.04652174 0.04897431 0.06981744 -0.0031670916 0.013762001 -0.04371889 -0.05297047 0.030454732
-0.07294106 0.025794141 -0.051320877 -0.04234847 -0.07877779 -0.02696447 0.019151405 -0.02626906
-0.008091733 0.035946593 0.07137234 -0.042829406 -0.074012145 0.077009864 -0.09070219 -0.07718358
-0.123906575 -0.06447748 -0.0676682 -0.023519749 -0.064853616 0.035083737 -0.117332235 -0.07547845
-0.0922059 -0.1299977 0.024262503 -0.069226064 -0.021848164 -0.09289363 -0.006262338 -0.041865315
0.03206359 -0.044280734 -0.08098756 0.024358831 0.09090043 0.0458458 -0.014902309 0.017855763
-0.05188141 -0.009788655 -0.02047125 -0.05843835 -0.056482248 0.0468075 -0.016894644 0.07603593
-0.07620176 -0.041909147 -0.09441745 0.0058437255 -0.048376977 -0.09320146 -0.01960776 -0.03835702
-0.060450446 0.03157598 -0.060224153 0.049933143 0.06091611 0.032000333 -0.08226268 0.033728402
-0.06827971 0.085721605 -0.016602144 -0.044971 0.006665215 0.07078797 -0.012346217 0.031149235
0.02341219 -0.08927526 -0.10512436 0.11360003 0.065673724 0.06631275 0.09665234 -0.06608048
-0.07024633 -0.025052574 -0.05551622 -0.024394952 0.046013422 -0.027547304 0.018273674 -0.025644183
0.058123533 -0.022917712 0.034521833 0.048692457

layers.4.weight f4 [12, 100]
00000000: 5a6f 9d3c a856 053e 7ed0 a83d 8f7c acbc
00000010: a821 383d 8463 b9bd d807 9b3c 2059 77bd
00000020: 5ef2 baba 779d 28bd 2a73 c6bd 190d bc3d
00000030: 4a39 0cbd 00fc fabc 7009 f93c 4fbf f0bc
00000040: b602 acbd 5f8e 563d e759 7fbd 36a7 a2bd
00000050: bae0 75bd ceb3 9fbd d170 a03d 0a9d 1c3d
00000060: 5366 3b3d 46cf a4bd 6295 a2bd 6649 963d
00000070: 8845 b9bc 7987 94bd 579d fbbc 0852 acbd
00000080: 1d4c 71bd 898c d6bd feda 513d 40fa 2cbb
00000090: 12f7 7f3d c093 383d cd38 9d3d 76b0 a6bd
000000a0: 545b c03d 6247 693d 25cd 44bc ffd1 493c
000000b0: 9aad 093d 3351 d53c d084 7abd 8c2b 91bc
000000c0: 480c e2bc e295 7a3d 90a9 293d 1307 803d
000000d0: 41db 3cbd b572 cfbd 5d62 643d f9d1 a43c
000000e0: de22 4a3a f74b 68bd 5049 a2bb 61c3 78bc
000000f0: 5a97 26bd cad3 62bd ce30 863d b16f a43d
00000100: a7ca 9f3d c8c0 8b3d 1081 0b3c 6a1a 383d
00000110: 794c 30bd 2d1b ea3d 5a60 323c d6fb 10be
00000120: 71bd ba3d 387a 1c3c 5dd9 9abd 73bc 1cbd
00000130: 89eb c63d 97d2 6bbd 5694 f83c a6a4 9abd
00000140: 8237 a8bd 28e3 853d 3318 c03d dc54 fd3d
00000150: 5af2 37bd a3cf 783d afbf 913d a029 21bb
00000160: e3ca d83d 41d4 993d 48db a5bd fece 4d3d
00000170: 30de 2d3d 445c fabc a46d 023d 289b 093a
00000180: 4e79 d0bb 9f45 323d 21fe bf3d 61bf af3d
00000190: 0248 4abd 8b56 efbd 7617 2fbd 0d47 63bd
000001a0: 74fb 62bd 3b0b 16bc 1d0e 933d c049 88bc
000001b0: 08fc 05be 7e4f 83bd e89b cabd 3eab 623d
000001c0: 10f9 3bbc 0dc6 50bd d166 ddbd 67e8 983d
000001d0: aa01 b1bd 732b e9bd 80a1 13bc a691 743d
000001e0: 80b7 a1bd 7296 84bd 1e0e 043d 02f3 c6bd
000001f0: ced6 dd3d 52f5 5a3d 32e4 473d a2f2 573d
00000200: 489f 853d 2d43 8dbb 6370 023d ceab 5f3d
00000210: 0272 393d 83e4 6e3c 2a65 61bd 7ef5 84bd
00000220: 00cd af3c 754d 203d be3d 03bc f96c b73d
00000230: 60b7 e7bd d482 bd3c 644f 64bc fbd4 14bd
00000240: 1794 873d 6c61 f93c 75e2 89bd a0aa 913c
00000250: 0d7e 76bd d37b 62bd c1a9 abbd 72b6 183d
00000260: e7a0 013d 34e9 6fbd 6064 b43c 3de5 c7bc
00000270: 3624 a33d d747 ae3d 82fb 87bd 9eed 113d
00000280: 493b c63d 030c 873d 748f 2e3c f889 f6bc
00000290: 54ce 8e3c 7294 d2bc 807f c03a 09a7 853d
000002a0: 6f18 edbc dd65 74bd 4081 e43d 4ebc 893d
000002b0: 9d71 c2bd 1455 c8bc f529 8a3d 9634 783d
000002c0: 8dac 883d 3da3 a8bd 89f1 a8bd 6d2c 973d
000002d0: d12a 9d3d 8648 6b3d eadd af3b cb07 073d
000002e0: 4334 d4bd 338f 0a3c d0d7 28bc 8063 92ba
000002f0: 7ccc b13c 71d1 71bd c00b 1e3c 8c81 0fbd
00000300: 32e0 f53c 7632 42bd 87b8 59bc 895d 88bd
00000310: e836 383d ce37 d53d 67d3 483d da9b 813d
00000320: 6fc3 103c d974 a4bc e87e 9539 0a41 a8bc
00000330: 068b b8bc c29f 09bd d190 9d3d 3eb0 8abd
00000340: 4381 183d 8ee9 3b3d bc60 d43c b271 193d
00000350: 38ca b33c 30fb 48bd cf8e aabd b2e1 b4bc
00000360: 3d94 76bd 569c bf3c 30cf f33b 00ec 86ba
00000370: 4c50 db3c 092b bd3d 20e2 fdbb c7aa 44bd
00000380: de1e fbbc 2336 a93d 27f7 b4bd 97fa 8f3c
00000390: 7d08 893d e027 c33d a30a ccbc 40c4 54bc
000003a0: 99c3 813d 8a18 39bc 8acc 103d 0c32 fdbc
000003b0: 6ace 573d f5ae a13c 48fe 9ebd a768 1cbd
000003c0: 0e59 df3c 727a 153d ce56 cfbd 882e c4bd
000003d0: ec1e a8bc 48d7 2fbd 3853 e6bc f1b1 893d
000003e0: 6077 e33b d8dc dabc 7ae5 a0bb d28e 3b3d
000003f0: 2074 e7bc 1ba2 b6bd a185 1dbd deaf dc3c
0.019218136 0.13021338 0.08242892 -0.021055488 0.044953972 -0.09052184 0.018924639 -0.06038773
-0.0014262905 -0.041165795 -0.096899346 0.09182186 -0.034234323 -0.030637741 0.030400008 -0.029388098
-0.083989546 0.05238187 -0.062341597 -0.07942049 -0.06002877 -0.07797967 0.07834018 0.0382357
0.04575188 -0.08047347 -0.07938649 0.073382184 -0.022616163 -0.07252402 -0.030714674 -0.08414084
-0.058910478 -0.10476024 0.051234238 -0.0026394278 0.062491484 0.04506278 0.076768495 -0.08139126
0.093924195 0.05695284 -0.012011801 0.012318133 0.033612825 0.026039695 -0.061161816 -0.01772096
-0.027593747 0.061178096 0.041421473 0.06251349 -0.046107534 -0.101293005 0.05575787 0.020119654
0.0007710884 -0.05671307 -0.004952587 -0.015183301 -0.040671684 -0.05537776 0.065522775 0.08029116
0.07802325 0.068238795 0.008514658 0.044947065 -0.04304168 0.114309646 0.01088723 -0.14158568
0.09118164 0.009550624 -0.0756099 -0.038265657 0.097128935 -0.05757388 0.03034417 -0.075509354
-0.08213712 0.06537467 0.09379616 0.12369701 -0.04490886 0.060744893 0.07116639 -0.002459146
0.105855726 0.07511187 -0.08098465 0.05024623 0.042448223 -0.030561574 0.031842843 0.00052492553
-0.006362117 0.043523427 0.09374643 0.085814245 -0.04938508 -0.11686429 -0.042746983 -0.05548768
-0.055415586 -0.009157951 0.07180426 -0.01663673 -0.13084424 -0.06411646 -0.09893018 0.05533909
-0.011472955 -0.050970126 -0.10810626 0.07466202 -0.086428955 -0.113852404 -0.009010673 0.059709214
-0.07896328 -0.06474008 0.032240026 -0.09714319 0.10831986 0.053456612 0.04880161 0.052721627
0.06524521 -0.0043109865 0.03184546 0.054607205 0.045274742 0.014580849 -0.05502812 -0.064921364
0.021460056 0.03913637 -0.008010326 0.08956332 -0.11314273 0.023133673 -0.013934944 -0.036335927
0.06620043 0.030441962 -0.067326464 0.017781556 -0.060178805 -0.05529387 -0.08381987 0.03728337
0.03164759 -0.05857201 0.022020519 -0.024401302 0.07965891 0.08509796 -0.06639768 0.035627
0.096792765 0.06594088 0.010654319 -0.030095086 0.01743237 -0.02570555 0.0014686435 0.06526
-0.028942315 -0.059667457 0.11157465 0.067253694 -0.09494326 -0.02445463 0.06746284 0.060597025
0.066735364 -0.0823426 -0.08249194 0.073815204 0.07674182 0.05744221 0.0053670304 0.032966416
-0.10361531 0.008456993 -0.01030536 -0.0011168569 0.021703951 -0.05903763 0.009646356 -0.035035655
0.030014131 -0.047411405 -0.013288624 -0.066584654 0.044974238 0.104110345 0.049029734 0.063285545
0.0088356575 -0.020075249 0.00028514047 -0.020538826 -0.022527229 -0.033599623 0.07693637 -0.06771897
0.03723265 0.045877032 0.025925033 0.037461944 0.021947011 -0.049067676 -0.0832802 -0.022080276
-0.060199965 0.023389976 0.00744047 -0.0010293722 0.026771687 0.09236724 -0.0077479035 -0.04801443
-0.030654367 0.08262279 -0.08836203 0.017575545 0.06691072 0.0952909 -0.024907416 -0.012986243
0.063361354 -0.0112973545 0.035351314 -0.030907653 0.052687086 0.019736746 -0.07763344 -0.03818574
0.027264144 0.036493726 -0.101239786 -0.09579188 -0.020522557 -0.042929918 -0.028115854 0.06723393
0.006941721 -0.026716635 -0.0049101682 0.0457905 -0.028253615 -0.08917638 -0.038457517 0.026939329

layers.4.bias f4 [12]
00000000: c4d1 2d3c 2cc5 f7bd 83ad 73bd 2b7e 083d
00000010: 0e92 fbbc 5eff 2f3d 00d8 45bd 8d16 d43d
00000020: 74d1 563d 0f95 1c3d c03b 443c 0d56 a3bd
0.010609094 -0.120981544 -0.059491646 0.03332345 -0.030709293 0.042968147 -0.048301697 0.10355864
0.052445844 0.03822809 0.011977136 -0.07975397

Sigma f4 [12, 12]
00000000: 2c4b 1dbf c117 95bf 1c16 df3d b2ef ae3f
00000010: d4e9 a5be ccb7 04c0 a6c5 af3e f617 3c3f
00000020: c550 04bf cda7 b3bc 7bf7 963e 7994 cfbf
00000030: 112b b5bf 281e ba3e 0357 adbd 19e5 9f3d
00000040: f562 6c3d c6a1 87bf 2f0e 20c0 5849 92bf
00000050: 193e f43c f602 5c3f 86ad c6bf 049d 353f
00000060: 2b5e a0be b893 3bbf 0010 3dbd 2971 b03f
00000070: 2f3e 253f 8633 ed3f 48cb 273f e887 803f
00000080: c67f a1bf 1c18 313d 8e47 efbd 4257 c13c
00000090: 13a4 f4bf 9e1e 093f 200a 91bf 21de 263e
000000a0: 446b 883f c6ae bbbf a26c bcbd 72ea 00bf
000000b0: 9f98 d03e 665a ba3e d3d1 973d e533 24bf
000000c0: 3da0 f83d 9679 213f fdda 36bf 0f29 683f
000000d0: a0b9 ca3f 47ce 523f 1bc2 fcbe b79e 5e3f
000000e0: 5941 b63f bcf7 8c3f 8b73 8dbf 2ae4 f93f
000000f0: d87f 393f dc0f 083f 97bd febe fda8 fa3f
00000100: 40e2 adbf f1d1 16bf b7c5 3f3f 15de 8cbd
00000110: 92fa 5b3f f72a 8abe f106 2fbe 19dd 79bd
00000120: 2b99 f1bf d7ba 86bf acbe c93e 2b5a 1a3f
00000130: 0337 a0be f04c 1340 9723 16bf 1a33 963e
00000140: b627 983e 218d 8b3d a846 8bbf 06b9 a2bf
00000150: 34e8 8abf 08c5 963f 0d53 65be 6fe4 adbf
00000160: 189f 2bbe 1314 28be f31f debf ab35 44bf
00000170: 6e1e 5cbf 1932 453f 18cc c1bf e0eb adbf
00000180: 01ac b03f c2ed ddbe 3cf1 07c0 ef0d 9dbf
00000190: d520 4ebf a26e a23e 2f2e db3d 9444 733f
000001a0: f2c7 3dbf d6f8 44bf 9d08 3e3f da23 e9bd
000001b0: 52ee 3abf 6b1c 923f fd3e 503f 8256 c3be
000001c0: 03d6 2abf 099f 313f 0a97 2b3f 21e0 dd3e
000001d0: e5ee aa3f 9953 acbf 89e7 81be 125d 1bbd
000001e0: 9a00 873f c01b adbf e2b4 973e bf59 b6be
000001f0: ffcb abbe f09f 893f e01f e5bc f010 383d
00000200: 5acb 1ac0 52f0 8ebf c4ab 963f 57dc d23e
00000210: 41fe 653e a512 c43e 323d 563f 42f5 3abf
00000220: 0f92 c8bf 33ea 3fbf 0a1c 493f 30ba 44bf
00000230: 57de 8dbf 5bee 27bf 09bb 56bf 88e2 4ebf
-0.6144283 -1.1647874 0.10892889 1.3666899 -0.3240496 -2.073718 0.3433048 0.7347406
-0.51685745 -0.0219306 0.29485688 -1.6217185 -1.4153768 0.36351132 -0.08463862 0.07807369
0.05771156 -1.0596244 -2.5008657 -1.1428633 0.029814767 0.8594202 -1.5521705 0.7094271
-0.31321844 -0.73272276 -0.046157837 1.3784534 0.6454801 1.8531349 0.6554456 1.0041475
-1.2617118 0.043235883 -0.1168357 0.023601178 -1.9112571 0.53562343 -1.1331215 0.16295673
1.0657735 -1.4662712 -0.092004076 -0.50357735 0.4074144 0.36397094 0.07413068 -0.64141685
0.12139938 0.6307615 -0.714279 0.9068765 1.5837898 0.82346004 -0.4936684 0.8696093
1.4238693 1.1013103 -1.1050886 1.9522755 0.724607 0.531492 -0.4975402 1.9582821
-1.3584671 -0.58914095 0.74911064 -0.06878296 0.85929215 -0.26985905 -0.17092492 -0.06100187
-1.8874868 -1.0525769 0.39403284 0.60293835 -0.3129197 2.301571 -0.58648056 0.29335862
0.29717797 0.068140276 -1.0880938 -1.2712715 -1.0852113 1.1778879 -0.22394963 -1.3585337
-0.16759908 -0.16413908 -1.73535 -0.7664439 -0.8598393 0.7702957 -1.514041 -1.3587608
1.3802491 -0.43345457 -2.1240988 -1.2269877 -0.8051885 0.3172503 0.10702168 0.95026517
-0.7413322 -0.76942194 0.7423189 -0.11383791 -0.730199 1.1414922 0.8134611 -0.38151938
-0.66732806 0.69383293 0.6702734 0.4333506 1.3354155 -1.3463012 -0.2537196 -0.037930556
1.0547059 -1.3524094 0.2963019 -0.35615346 -0.33554074 1.0751934 -0.0279693 0.044938028
-2.4186616 -1.116709 1.1771169 0.4118373 0.22460271 0.38295475 0.83687127 -0.73030484
-1.5669574 -0.74966735 0.7855841 -0.768466 -1.1083478 -0.65598077 -0.83879143 -0.8081441

exp_avg f4 [100, 12]
00000000: 2eb6 24be 8159 dfbd b252 6cbd adbb 66bd
00000010: 8540 04be 3ea2 5bbe cd41 823c 5aee 2dbd
00000020: 2033 c0bd 42ad 2abd 8e1e aa3c fa5a 6dbc
00000030: ef92 5740 f67b 1040 f2c0 903f 5a4a 8e3f
00000040: 3249 0e40 3a3c 5740 2939 433e e27d fb3e
00000050: 6cb2 833e 7cb5 73be 0a7e d5be 656d 38be
00000060: 0000 0000 0000 0000 0000 0000 0000 0000
00000070: 0000 0000 0000 0000 0000 0000 0000 0000
00000080: 0000 0000 0000 0000 0000 0000 0000 0000
00000090: 02e6 33be 7fc1 e5bd 7cbd 78bd 24a9 64bd
000000a0: 9596 fdbd 611a 51be e5ba 0d3c 8304 05bd
000000b0: 0602 5fbd 2941 5fbc 3fbf b33c b237 b2bb
000000c0: 0000 0000 0000 0000 0000 0000 0000 0000
000000d0: 0000 0000 0000 0000 0000 0000 0000 0000
000000e0: 0000 0000 0000 0000 0000 0000 0000 0000
000000f0: 0000 0000 0000 0000 0000 0000 0000 0000
00000100: 0000 0000 0000 0000 0000 0000 0000 0000
00000110: 0000 0000 0000 0000 0000 0000 0000 0000
00000120: 647f 863f facc 363f d4da b33e ff03 b53e
00000130: 1704 333f 7b76 853f fc16 863d 1121 1d3e
00000140: 81fd 9e3d d66d a1bd 1efe 04be 7bc5 7ebd
00000150: 9a3d 1d3f f613 d33e 38df 503e 3e77 513e
00000160: 9748 d13e 8bc0 1d3f 1118 2b3d ef3e af3d
00000170: 8534 283d c6f1 21bd ebad a8bd 864a 1ebd
00000180: 365f 763f aa84 243f 4a07 a23e 1f77 a33e
00000190: aa8a 213f c3e8 733f 6e02 673d d214 093e
000001a0: d6d9 743d 39ec 9fbd 7cc3 fbbd 21b2 71bd
000001b0: 0000 0000 0000 0000 0000 0000 0000 0000
000001c0: 0000 0000 0000 0000 0000 0000 0000 0000
000001d0: 0000 0000 0000 0000 0000 0000 0000 0000
000001e0: 0000 0000 0000 0000 0000 0000 0000 0000
000001f0: 0000 0000 0000 0000 0000 0000 0000 0000
00000200: 0000 0000 0000 0000 0000 0000 0000 0000
00000210: 0000 0000 0000 0000 0000 0000 0000 0000
00000220: 0000 0000 0000 0000 0000 0000 0000 0000
00000230: 0000 0000 0000 0000 0000 0000 0000 0000
00000240: 3e6b 16c0 3155 cabf c226 49bf 5c0c 49bf
00000250: 1f55 c9bf 76df 18c0 88f0 e7bd 1d30 b7be
00000260: 1919 79be 570c f53d 84fc 993e cb7e de3d
00000270: d7d1 0b3f 48cb bc3e e195 3d3e d76c 363e
00000280: 2f57 b53e fa01 063f 4ef3 653d 3ac1 8f3d
00000290: 9c33 d2bb 4a10 71bd 7e45 93bd 4e62 2fbd
000002a0: 0000 0000 0000 0000 0000 0000 0000 0000
000002b0: 0000 0000 0000 0000 0000 0000 0000 0000
000002c0: 0000 0000 0000 0000 0000 0000 0000 0000
000002d0: f539 0540 5e1d b23f 5a65 353f b395 2c3f
000002e0: 39f8 ac3f c9ae 0240 d0a4 133e 0a91 963e
000002f0: 9635 c53d 66c7 38be b8b6 7fbe 429f f7bd
00000300: 78fc c740 2d76 8640 b3f4 0640 daf3 0340
00000310: 810c 8440 ac73 c740 d39e b83e 6d3c 6c3f
00000320: abb0 f53e f636 e4be e48a 43bf a026 a8be
00000330: 0000 0000 0000 0000 0000 0000 0000 0000
00000340: 0000 0000 0000 0000 0000 0000 0000 0000
00000350: 0000 0000 0000 0000 0000 0000 0000 0000
00000360: 1a4c 9a40 55b3 4e40 fd50 cf3f 4095 cb3f
00000370: f6c9 4b40 7829 9a40 fbfe 8b3e 07a9 333f
00000380: 2c28 bc3e b219 acbe d54c 1abf 8f49 83be
00000390: 0000 0000 0000 0000 0000 0000 0000 0000
000003a0: 0000 0000 0000 0000 0000 0000 0000 0000
000003b0: 0000 0000 0000 0000 0000 0000 0000 0000
000003c0: 0000 0000 0000 0000 0000 0000 0000 0000
000003d0: 0000 0000 0000 0000 0000 0000 0000 0000
000003e0: 0000 0000 0000 0000 0000 0000 0000 0000
000003f0: 0000 0000 0000 0000 0000 0000 0000 0000
-0.16085121 -0.109057434 -0.057696052 -0.056331325 -0.12915237 -0.21448609 0.015900517 -0.042463638
-0.09384751 -0.041669138 0.020766523 -0.0144870225 3.368343 2.257566 1.1308882 1.111644
2.2232175 3.363051 0.19064774 0.49119478 0.25722063 -0.237997 -0.41697723 -0.1801048
0.0 0.0 0.0 0.0 0.0 0.0 0.0 0.0
0.0 0.0 0.0 0.0 -0.1756821 -0.11218547 -0.06072758 -0.055825368
-0.12382237 -0.20420219 0.008650516 -0.032475006 -0.05444529 -0.013626375 0.02194178 -0.0054387683
0.0 0.0 0.0 0.0 0.0 0.0 0.0 0.0
0.0 0.0 0.0 0.0 0.0 0.0 0.0 0.0
0.0 0.0 0.0 0.0 0.0 0.0 0.0 0.0
1.0507627 0.7140652 0.3512789 0.3535461 0.69928116 1.0426782 0.06547353 0.15344645
0.07763196 -0.07882278 -0.12987563 -0.06220005 0.6142212 0.41226166 0.20397651 0.20455644
0.40875694 0.6162192 0.041771 0.085569255 0.04106571 -0.039537214 -0.08236297 -0.03864529
0.9623903 0.6426493 0.31646186 0.3192682 0.6310221 0.9527704 0.0563988 0.13386849
0.059778057 -0.07808728 -0.12293145 -0.059007768 0.0 0.0 0.0 0.0
0.0 0.0 0.0 0.0 0.0 0.0 0.0 0.0
0.0 0.0 0.0 0.0 0.0 0.0 0.0 0.0
0.0 0.0 0.0 0.0 0.0 0.0 0.0 0.0
0.0 0.0 0.0 0.0 0.0 0.0 0.0 0.0
-2.3502955 -1.5807248 -0.78574765 -0.78534484 -1.5729102 -2.388639 -0.113251746 -0.35778895
-0.2432598 0.11965244 0.30075467 0.108640276 0.54617065 0.3687384 0.18514206 0.17814957
0.35418078 0.52346766 0.056140237 0.07019277 -0.0064148437 -0.058853425 -0.07190989 -0.04281836
0.0 0.0 0.0 0.0 0.0 0.0 0.0 0.0
0.0 0.0 0.0 0.0 2.0816624 1.3915212 0.70857775 0.6741592
1.3513252 2.041918 0.1441834 0.2940753 0.09629361 -0.18044814 -0.24972045 -0.12090923
6.249569 4.2019258 2.1086853 2.0617585 4.1265264 6.23287 0.36058673 0.922797
0.4798635 -0.44573182 -0.76383805 -0.3284197 0.0 0.0 0.0 0.0
0.0 0.0 0.0 0.0 0.0 0.0 0.0 0.0
4.8217897 3.2296956 1.6196591 1.5904922 3.1842017 4.817562 0.27342972 0.7017979
0.367494 -0.33613354 -0.60273486 -0.25642058 0.0 0.0 0.0 0.0
0.0 0.0 0.0 0.0 0.0 0.0 0.0 0.0
0.0 0.0 0.0 0.0 0.0 0.0 0.0 0.0
0.0 0.0 0.0 0.0 0.0 0.0 0.0 0.0

exp_avg_sq f4 [100, 12]
00000000: 635e de3f 4bae 443f d5ac 473e dce0 3e3e
00000010: 8ad0 403f d306 dd3f 777d c83b 7c0b 0c3d
00000020: 321f 043c 7e13 223c 6024 ec3c 63be b93b
00000030: 623d 2340 7c38 913f 05a3 923e 3d06 8d3e
00000040: 6d30 8e3f c999 2340 feea 0d3c 2a2e 563d
00000050: 387c 5d3c 11f7 423c 0eda 2b3d b35e fb3b
00000060: 0000 0000 0000 0000 0000 0000 0000 0000
00000070: 0000 0000 0000 0000 0000 0000 0000 0000
00000080: 0000 0000 0000 0000 0000 0000 0000 0000
00000090: 95c4 6d3f 0d8f d33e 0a11 d53d a81e ce3d
000000a0: dfa7 cf3e 7a10 6e3f 55cd 5e3b 6132 993c
000000b0: 083e 993b cf71 933b 0636 803c c5b6 453b
000000c0: 0000 0000 0000 0000 0000 0000 0000 0000
000000d0: 0000 0000 0000 0000 0000 0000 0000 0000
000000e0: 0000 0000 0000 0000 0000 0000 0000 0000
000000f0: 0000 0000 0000 0000 0000 0000 0000 0000
00000100: 0000 0000 0000 0000 0000 0000 0000 0000
00000110: 0000 0000 0000 0000 0000 0000 0000 0000
00000120: 49e9 2a3f 096c 9a3e df4c 953d bd03 993d
00000130: 7824 973e 640f 2c3f 7608 4f3b 7189 5b3c
00000140: 66a7 423b bf13 323b f617 4e3c 36b8 2e3b
00000150: ea6b 053e 941f 713d bc95 6a3c 42a0 6d3c
00000160: 7e24 6c3d 0432 063e 0363 1d3a 3b0e 283b
00000170: 152d 173a 5732 0e3a 2faa 1a3b 696c 073a
00000180: d58c a83e ac48 183e fc88 133d b56c 163d
00000190: 7a65 143e 27ba a83e 0a5f c53a 1367 d73b
000001a0: b794 bd3a 5f2e c43a 572b c43b 7bc5 a93a
000001b0: 0000 0000 0000 0000 0000 0000 0000 0000
000001c0: 0000 0000 0000 0000 0000 0000 0000 0000
000001d0: 0000 0000 0000 0000 0000 0000 0000 0000
000001e0: 0000 0000 0000 0000 0000 0000 0000 0000
000001f0: 0000 0000 0000 0000 0000 0000 0000 0000
00000200: 0000 0000 0000 0000 0000 0000 0000 0000
00000210: 0000 0000 0000 0000 0000 0000 0000 0000
00000220: 0000 0000 0000 0000 0000 0000 0000 0000
00000230: 0000 0000 0000 0000 0000 0000 0000 0000
00000240: b41a 2a40 acf3 953f e63f 9a3e 3e72 903e
00000250: b21c 933f 5fdb 2940 1916 003c b69e 5d3d
00000260: 8480 6b3c 8732 633c 058e 2b3d b4e6 ed3b
00000270: 2bed e03e dee1 483e 97c4 483d 9fc6 433d
00000280: 6e85 443e a54e e03e eb8e de3a 2125 0e3c
00000290: ed47 083b 2b94 1a3b 0709 f33b cb28 c93a
000002a0: 0000 0000 0000 0000 0000 0000 0000 0000
000002b0: 0000 0000 0000 0000 0000 0000 0000 0000
000002c0: 0000 0000 0000 0000 0000 0000 0000 0000
000002d0: 7008 753f 39c0 da3e b4be db3d 0227 d53d
000002e0: e464 d73e d6f0 753f 03d5 623b 3744 9f3c
000002f0: 8497 a63b 4e93 973b 6041 853c ff25 4f3b
00000300: 923e 3541 5021 a140 c6b0 a23f 9b92 9c3f
00000310: 40ff 9d40 a1c9 3541 4e0f 213d 8c9e 6c3e
00000320: a2f3 723d d344 573d c909 413e ee13 0e3d
00000330: 0000 0000 0000 0000 0000 0000 0000 0000
00000340: 0000 0000 0000 0000 0000 0000 0000 0000
00000350: 0000 0000 0000 0000 0000 0000 0000 0000
00000360: cb8f b240 1d90 1e40 37d5 203f 5f9c 193f
00000370: 6845 1b40 1ce9 b240 6854 953c 6b24 ea3d
00000380: 1517 f53c 2824 d73c c569 b93d 2467 853c
00000390: 0000 0000 0000 0000 0000 0000 0000 0000
000003a0: 0000 0000 0000 0000 0000 0000 0000 0000
000003b0: 0000 0000 0000 0000 0000 0000 0000 0000
000003c0: 0000 0000 0000 0000 0000 0000 0000 0000
000003d0: 0000 0000 0000 0000 0000 0000 0000 0000
000003e0: 0000 0000 0000 0000 0000 0000 0000 0000
000003f0: 0000 0000 0000 0000 0000 0000 0000 0000
1.7372555 0.7682845 0.19499524 0.18640465 0.75318205 1.7267708 0.006118472 0.03419064
0.008064078 0.009892343 0.028825939 0.005668448 2.5506215 1.1345363 0.2864 0.27543822
1.1108528 2.5562613 0.008661984 0.05229012 0.013518386 0.0118997255 0.041956 0.007671201
0.0 0.0 0.0 0.0 0.0 0.0 0.0 0.0
0.0 0.0 0.0 0.0 0.92878085 0.41320077 0.104036406 0.10064441
0.40557763 0.9299389 0.00339969 0.01870078 0.004676584 0.004499651 0.01565076 0.0030168754
0.0 0.0 0.0 0.0 0.0 0.0 0.0 0.0
0.0 0.0 0.0 0.0 0.0 0.0 0.0 0.0
0.0 0.0 0.0 0.0 0.0 0.0 0.0 0.0
0.66762215 0.3016055 0.072900526 0.07471416 0.2952001 0.67210984 0.0031590736 0.013399468
0.0029701828 0.0027172414 0.012578955 0.0026660091 0.13029447 0.058868006 0.014317926 0.0145035405
0.05765199 0.13105017 0.00060038286 0.0025643248 0.00057669106 0.00054243713 0.0023599972 0.00051659957
0.32919946 0.14871472 0.03601931 0.036724765 0.14491835 0.32954523 0.0015058231 0.0065735667
0.0014463876 0.0014967433 0.005986612 0.001295253 0.0 0.0 0.0 0.0
0.0 0.0 0.0 0.0 0.0 0.0 0.0 0.0
0.0 0.0 0.0 0.0 0.0 0.0 0.0 0.0
0.0 0.0 0.0 0.0 0.0 0.0 0.0 0.0
0.0 0.0 0.0 0.0 0.0 0.0 0.0 0.0
2.6578798 1.1714988 0.30126876 0.2821216 1.1493132 2.6540143 0.0078177685 0.054106437
0.014373902 0.013867027 0.041883487 0.007260168 0.43930945 0.19617411 0.049015608 0.04779684
0.19191524 0.4381 0.0016979849 0.008675844 0.0020794824 0.002358685 0.0074168476 0.001534724
0.0 0.0 0.0 0.0 0.0 0.0 0.0 0.0
0.0 0.0 0.0 0.0 0.95716 0.4272478 0.10729733 0.10407831
0.4206916 0.9607061 0.0034611828 0.019441707 0.00508398 0.0046257144 0.016266525 0.003160834
11.327776 5.0353165 1.2710197 1.223224 4.9374084 11.361726 0.039321236 0.23107356
0.059314378 0.05255587 0.18851389 0.034686975 0.0 0.0 0.0 0.0
0.0 0.0 0.0 0.0 0.0 0.0 0.0 0.0
5.580053 2.477546 0.6282534 0.6000423 2.4261112 5.5909557 0.018228725 0.114327274
0.029918233 0.026262358 0.09053377 0.016284533 0.0 0.0 0.0 0.0
0.0 0.0 0.0 0.0 0.0 0.0 0.0 0.0
0.0 0.0 0.0 0.0 0.0 0.0 0.0 0.0
0.0 0.0 0.0 0.0 0.0 0.0 0.0 0.0

exp_avg f4 [100]
00000000: d056 82be 438f 8f40 0000 0000 c351 7fbe
00000010: 0000 0000 0000 0000 52e2 b33f 684e 523f
00000020: 729a a33f 0000 0000 0000 0000 0000 0000
00000030: 4768 4ac0 334b 363f 0000 0000 9ef7 2e40
00000040: 801b 0541 0000 0000 c35d cd40 0000 0000
00000050: 0000 0000 0000 0000 4c8e a23e 0000 0000
00000060: 0000 0000 0000 0000 8029 e040 0000 0000
00000070: 0000 0000 1e5e fa3b 0000 0000 0000 0000
00000080: 46fb 91bf 329a df40 10d2 89c0 0000 0000
00000090: 0000 0000 cc24 8cc0 ba58 913f 370a c93f
000000a0: 0000 0000 14d5 0541 94e1 99c0 e903 8840
000000b0: 8fbe 1940 7fd7 3841 0000 0000 0000 0000
000000c0: 0000 0000 80ab 5940 0000 0000 0000 0000
000000d0: 0000 0000 0000 0000 fac9 0c40 49a1 f640
000000e0: 57f4 1740 0000 0000 8b07 c040 0000 0000
000000f0: 6ff0 3dc0 0000 0000 0000 0000 0000 0000
00000100: ba99 4cc0 0000 0000 0000 0000 eaba 0041
00000110: 56a5 0b40 0000 0000 0000 0000 d972 b140
00000120: 0000 0000 143e 6f40 0000 0000 04e4 0f40
00000130: 3ca5 043f 6bc0 2cc0 0000 0000 c257 fbbf
00000140: 0000 0000 aa32 91be 0000 0000 0000 0000
00000150: 0000 0000 0000 0000 2de0 fb3f 0000 0000
00000160: 0000 0000 5652 5ec0 c740 5cc0 2ca5 6fbe
00000170: e91d 9e3e 0000 0000 c6f2 8b3f b6c8 213f
00000180: 21cb 363f 0000 0000 323e 0741 a4e0 0540
-0.25456858 4.486238 0.0 -0.24933533 0.0 0.0 1.4053442 0.8215089
1.2781508 0.0 0.0 0.0 -3.1626146 0.71208495 0.0 2.7338634
8.319214 0.0 6.4176955 0.0 0.0 0.0 0.3174919 0.0
0.0 0.0 7.005066 0.0 0.0 0.007640614 0.0 0.0
-1.1404808 6.9875727 -4.3068924 0.0 0.0 -4.379492 1.1355202 1.5706242
0.0 8.364521 -4.8087864 4.2504773 2.4022558 11.552611 0.0 0.0
0.0 3.4010925 0.0 0.0 0.0 0.0 2.1998277 7.707188
2.3742883 0.0 6.000921 0.0 -2.9678 0.0 0.0 0.0
-3.1968827 0.0 0.0 8.045633 2.1819663 0.0 0.0 5.5452695
0.0 3.738164 0.0 2.248292 0.5181463 -2.6992443 0.0 -1.9636157
0.0 -0.28358966 0.0 0.0 0.0 0.0 1.9677788 0.0
0.0 -3.4737754 -3.4414537 -0.23402852 0.30882195 0.0 1.0933464 0.63196886
0.714037 0.0 8.452684 2.091836

exp_avg_sq f4 [100]
00000000: ce5c 4340 cd51 9040 0000 0000 e342 d23f
00000010: 0000 0000 0000 0000 e1cc 983f a497 6e3e
00000020: db43 163f 0000 0000 0000 0000 0000 0000
00000030: a56b 9540 02e9 463f 0000 0000 204e d93f
00000040: ca45 a041 0000 0000 48ab 1d41 0000 0000
00000050: 0000 0000 0000 0000 b24e 883d 0000 0000
00000060: 0000 0000 0000 0000 eb6b 2541 0000 0000
00000070: 0000 0000 97ac 2138 0000 0000 0000 0000
00000080: 30f1 3240 cae0 4741 2ad7 d940 0000 0000
00000090: 0000 0000 8a9c 2641 f95d 3b3f 04ad 163f
000000a0: 0000 0000 545c b841 38ba 3041 6201 a240
000000b0: 6f57 2e40 42ce 2b42 0000 0000 0000 0000
000000c0: 0000 0000 3288 4a40 0000 0000 0000 0000
000000d0: 0000 0000 0000 0000 7436 ef3f 2a95 6e41
000000e0: b09e a03f 0000 0000 12cd 2241 0000 0000
000000f0: 14c4 9f40 0000 0000 0000 0000 0000 0000
00000100: bf5e b640 0000 0000 0000 0000 2778 8441
00000110: 05a8 793f 0000 0000 0000 0000 f14f dd40
00000120: 0000 0000 6f22 5640 0000 0000 8eb6 b53f
00000130: 54c7 2940 079f db40 0000 0000 d2d0 8d3f
00000140: 0000 0000 912b 1140 0000 0000 0000 0000
00000150: 0000 0000 0000 0000 b38a 8d3f 0000 0000
00000160: 0000 0000 494a d640 ea7b 9340 19dc 0e3f
00000170: 239e 4c3f 0000 0000 7651 683e 8928 283e
00000180: d06a 1a3e 0000 0000 95bc 8541 51dc 633f
3.0525393 4.5099854 0.0 1.6426662 0.0 0.0 1.1937524 0.23300034
0.5869729 0.0 0.0 0.0 4.66939 0.7769929 0.0 1.6976967
20.034077 0.0 9.854317 0.0 0.0 0.0 0.06655635 0.0
0.0 0.0 10.338847 0.0 0.0 3.8546128e-05 0.0 0.0
2.795971 12.49238 6.807515 0.0 0.0 10.413218 0.73190266 0.5885775
0.0 23.045082 11.045464 5.062669 2.7240865 42.951424 0.0 0.0
0.0 3.1645627 0.0 0.0 0.0 0.0 1.8688493 14.911417
1.2548428 0.0 10.175066 0.0 4.9926853 0.0 0.0 0.0
5.6990657 0.0 0.0 16.558668 0.97522 0.0 0.0 6.9160085
0.0 3.3458517 0.0 1.4196336 2.652791 6.8631625 0.0 1.1079352
0.0 2.268284 0.0 0.0 0.0 0.0 1.1057953 0.0
0.0 6.696568 4.608876 0.5580459 0.799288 0.0 0.22687325 0.16421713
0.15079808 0.0 16.717081 0.8900805

exp_avg f4 [100, 100]
00000000: 9df6 d43e 1e55 a73e 0000 0000 a676 1e3f
00000010: 0000 0000 0000 0000 2305 8a3d 4550 423d
00000020: e6ad fc3e 0000 0000 0000 0000 0000 0000
00000030: 78a8 e23e a44e 513f 0000 0000 4925 573f
00000040: 690a 413f 0000 0000 ace0 913e 0000 0000
00000050: 0000 0000 0000 0000 5cb6 25bb 0000 0000
00000060: 0000 0000 0000 0000 7e37 343f 0000 0000
00000070: 0000 0000 45ad fab8 0000 0000 0000 0000
00000080: 2d72 9f3e 47f5 3f3e 6bc8 eb3e 0000 0000
00000090: 0000 0000 16cc d83d 03e9 183e db89 953f
000000a0: 0000 0000 a3de fd3e b307 213e 4683 b23e
000000b0: 58c2 463f 196d 633e 0000 0000 0000 0000
000000c0: 0000 0000 e453 d83d 0000 0000 0000 0000
000000d0: 0000 0000 0000 0000 9636 973d 86a6 6d3e
000000e0: 4c6d a63e 0000 0000 6889 223f 0000 0000
000000f0: 618b 343e 0000 0000 0000 0000 0000 0000
00000100: 2861 243e 0000 0000 0000 0000 942c cf3d
00000110: 18c6 233f 0000 0000 0000 0000 9440 3b3e
00000120: 0000 0000 8a9e 413f 0000 0000 661f 783f
00000130: d8ae 593f f635 c33e 0000 0000 529f 5f3e
00000140: 0000 0000 178e 543e 0000 0000 0000 0000
00000150: 0000 0000 0000 0000 e4c3 a83d 0000 0000
00000160: 0000 0000 ffe7 6b3f 999d 4a3e 96f3 783e
00000170: 0e0f d83e 0000 0000 347b 223e 4988 973d
00000180: b9e9 e33b 0000 0000 16f3 de3e c6ce 983e
00000190: 149e 103f 4e3f b73e 0000 0000 82a4 483f
000001a0: 0000 0000 0000 0000 b137 153d b786 af3c
000001b0: 9251 2a3f 0000 0000 0000 0000 0000 0000
000001c0: 42e8 3d3f d0ab 853f 0000 0000 58e1 873f
000001d0: e960 823f 0000 0000 92d9 ac3e 0000 0000
000001e0: 0000 0000 0000 0000 ab3b 63bc 0000 0000
000001f0: 0000 0000 0000 0000 51f9 5e3f 0000 0000
00000200: 0000 0000 b453 abb9 0000 0000 0000 0000
00000210: de69 d13e 5d6d 5d3e 11a6 2a3f 0000 0000
00000220: 0000 0000 4d95 3c3e c095 f13d 4ed1 c73f
00000230: 0000 0000 c802 243f 1ba8 783e ef4e de3e
00000240: b03f 843f 8377 6e3e 0000 0000 0000 0000
00000250: 0000 0000 a620 d33d 0000 0000 0000 0000
00000260: 0000 0000 0000 0000 54f4 9a3d 28c4 5b3e
00000270: 56a4 d43e 0000 0000 c733 593f 0000 0000
00000280: 8c10 623e 0000 0000 0000 0000 0000 0000
00000290: c020 813e 0000 0000 0000 0000 298d c63d
000002a0: f054 4c3f 0000 0000 0000 0000 56d0 0e3e
000002b0: 0000 0000 4d58 763f 0000 0000 f6f1 a13f
000002c0: 95d8 8f3f 4deb 053f 0000 0000 907c dd3e
000002d0: 0000 0000 464a 863e 0000 0000 0000 0000
000002e0: 0000 0000 0000 0000 c059 aa3d 0000 0000
000002f0: 0000 0000 619f a33f 6d2d 853e 91b4 763e
00000300: 5a69 ff3e 0000 0000 aec6 d73d 5d1b 283d
00000310: 743d 51bc 0000 0000 30a3 053f 7a16 b03e
00000320: 26a1 cbbd 7b63 823d 0000 0000 1200 1fbe
00000330: 0000 0000 0000 0000 7d87 4b3d 90ed 143d
00000340: 38a2 01bd 0000 0000 0000 0000 0000 0000
00000350: 4612 99be ca12 4dbe 0000 0000 7ba0 00be
00000360: d87b cdbd 0000 0000 5607 4e3d 0000 0000
00000370: 0000 0000 0000 0000 e79c 8039 0000 0000
00000380: 0000 0000 0000 0000 ee5a e1bd 0000 0000
00000390: 0000 0000 a3ec ce38 0000 0000 0000 0000
000003a0: 56f6 ddbd 53a9 ca3c 03d4 8cbe 0000 0000
000003b0: 0000 0000 f04f 5dbd 14c0 9d3d ef08 84be
000003c0: 0000 0000 fc73 61bd 7c63 6bbd 60da aebb
000003d0: b55f 18be a031 92bc 0000 0000 0000 0000
000003e0: 0000 0000 219d bf3c 0000 0000 0000 0000
000003f0: 0000 0000 0000 0000 89a3 9b3c 26d5 8e3c
0.415944 0.32682127 0.0 0.61899793 0.0 0.0 0.06739261 0.047439832
0.49351424 0.0 0.0 0.0 0.44269156 0.8176062 0.0 0.8404127
0.7540651 0.0 0.28491724 0.0 0.0 0.0 -0.0025285697 0.0
0.0 0.0 0.70397174 0.0 0.0 -0.00011953203 0.0 0.0
0.31141797 0.1874591 0.46051344 0.0 0.0 0.10585801 0.14932637 1.1682695
0.0 0.4958392 0.15725593 0.3486578 0.77640295 0.22209586 0.0 0.0
0.0 0.10562876 0.0 0.0 0.0 0.0 0.07383458 0.23208055
0.32505262 0.0 0.63490915 0.0 0.17631294 0.0 0.0 0.0
0.16052687 0.0 0.0 0.101159245 0.6397414 0.0 0.0 0.18286353
0.0 0.75632536 0.0 0.9692291 0.85032415 0.38127106 0.0 0.2183812
0.0 0.20757328 0.0 0.0 0.0 0.0 0.08240488 0.0
0.0 0.9215087 0.19786681 0.2431167 0.42198986 0.0 0.15867311 0.07399041
0.006955352 0.0 0.43544835 0.29845256 0.5649121 0.35790485 0.0 0.7837602
0.0 0.0 0.036430065 0.021426542 0.66530716 0.0 0.0 0.0
0.7418252 1.0443058 0.0 1.0615644 1.0185825 0.0 0.33759743 0.0
0.0 0.0 -0.013869206 0.0 0.0 0.0 0.87099177 0.0
0.0 -0.00032678025 0.0 0.0 0.40901083 0.2162375 0.6665965 0.0
0.0 0.18416329 0.11796141 1.561075 0.0 0.64066744 0.24282877 0.43419597
1.0331936 0.23287778 0.0 0.0 0.0 0.103089616 0.0 0.0
0.0 0.0 0.07566133 0.21461546 0.41531628 0.0 0.8484463 0.0
0.22076625 0.0 0.0 0.0 0.252203 0.0 0.0 0.09694893
0.79817104 0.0 0.0 0.13946661 0.0 0.96228486 0.0 1.2651966
1.123797 0.52312165 0.0 0.43259096 0.0 0.2622854 0.0 0.0
0.0 0.0 0.083179 0.0 0.0 1.2783014 0.2601122 0.24092318
0.49885064 0.0 0.10535942 0.04104172 -0.012770999 0.0 0.5220213 0.34392148
-0.09942846 0.06366631 0.0 -0.1552737 0.0 0.0 0.04968976 0.03635937
-0.031648844 0.0 0.0 0.0 -0.29896754 -0.20026699 0.0 -0.12561218
-0.10033387 0.0 0.050299965 0.0 0.0 0.0 0.00024530964 0.0
0.0 0.0 -0.110036716 0.0 0.0 9.8669225e-05 0.0 0.0
-0.108380005 0.024738943 -0.27505502 0.0 0.0 -0.054031312 0.077026516 -0.25788066
0.0 -0.055042252 -0.057467923 -0.005336091 -0.1488026 -0.017845929 0.0 0.0
0.0 0.023390355 0.0 0.0 0.0 0.0 0.018998878 0.017435621
