src/Policy_Gradient/Progress_Checkpoint/Trained_Model.pth (torch, 225301 bytes, 187 tensors)

layers.0.weight f4 [100, 10]
000000 70 98 71 3e d0 6c 83 3e 25 f4 a3 bd 95 ba 91 3e
       0.23593307 0.25668955 -0.08005551 0.28462663
000010 6e cf 99 bd d6 a0 6d 3d dc 48 23 be 16 53 38 3e
       -0.07510267 0.058014713 -0.15945762 0.18000445
000020 f4 6e 91 3e 58 06 67 be dc c7 90 3e 06 5f 89 3d
       0.28404963 -0.22561014 0.2827748 0.067075774
000030 21 94 77 3e 32 1f 50 3d a0 47 24 3e ae 8d 13 bd
       0.241776 0.050811 0.16042948 -0.03602379
000040 5f b0 80 3e 58 5e 5d 3d e1 df 1e be 1a 3b 93 3d
       0.2513456 0.05404505 -0.1551509 0.07189007
000050 c8 31 15 be 60 e6 17 bd 65 85 03 be 9a cf 56 3e
       -0.14569771 -0.037084937 -0.12843855 0.20977631
000060 96 9c 7f be 79 48 15 be 28 e0 b6 bd cf b3 42 be
       -0.24962077 -0.14578427 -0.08929473 -0.19013904
000070 c0 80 f4 3c ec e9 9f be 77 df 95 3e 31 e6 85 be
       0.029846549 -0.31233156 0.29272053 -0.26152185
000080 46 c8 80 3e da 22 75 3d 4d 98 c3 bd d4 32 50 3e
       0.25152797 0.05984769 -0.095505334 0.2033189
000090 25 75 65 3d 86 30 86 3e 43 1a e4 3c 54 c0 dc bd
       0.05601992 0.26208895 0.027844554 -0.10778871
0000a0 6f b5 97 3d f8 c3 c5 bd 6a 0d fa 3d ef f7 8a 3e
       0.074076526 -0.09656519 0.1220959 0.27142283
0000b0 e8 0a 30 3e 61 08 19 be 81 1a 30 3e 39 0c 3c 3d
       0.1719166 -0.14944603 0.1719761 0.045910094
0000c0 00 4e 2f 3e de bf 39 be 53 46 a0 be 6c 38 fa bd
       0.17119598 -0.18139598 -0.31303653 -0.12217793
0000d0 0e 60 78 be 31 da 84 3e fc 89 ba 3d 26 21 06 3e
       -0.24255392 0.25947717 0.0910835 0.13098583
0000e0 58 d2 cc 3d 80 42 b4 bb 0a 6c 7d 3e 98 13 66 be
       0.100010574 -0.0055010915 0.24748245 -0.22468412
0000f0 20 1c a3 3c ae 04 5d be 0c b3 c7 3d aa 08 df bd
       0.019910872 -0.21583816 0.09750947 -0.108903244
000100 1c 72 c6 3d dc ed 86 bd 23 49 86 3e 56 ed 3f be
       0.096897334 -0.06588337 0.26227674 -0.1874288
000110 bb 1f 41 be b7 22 41 be a7 a0 91 3e 2c d3 d7 3d
       -0.1885976 -0.18860899 0.2844288 0.10538325
000120 f3 cb 9b 3e 8d 9e 85 be e2 97 a0 be c6 57 7d be
       0.30429038 -0.26097527 -0.31365877 -0.24740514
000130 0c d4 59 be b2 28 03 3e fc e6 e7 3d a9 88 86 3e
       -0.21272296 0.12808493 0.11323354 0.26276138
000140 39 3a 27 be 02 c0 5c be 72 cf 2b 3e 6d e3 02 be
       -0.16330804 -0.2155762 0.16778353 -0.12782069
000150 4a 88 44 3e 20 af 99 bd 02 3d 39 3e 7b 98 7b be
       0.19192615 -0.075041056 0.18089679 -0.24569885
000160 0f 6a 23 be d0 72 c5 3d 30 ea 88 3d be 1e a5 bd
       -0.15958427 0.09641039 0.06685293 -0.08062504
000170 7e 04 41 3e 4a 22 5c 3e d9 d2 6a be 2f e0 2c be
       0.1884937 0.21497455 -0.22931994 -0.16882394
000180 e9 40 94 3e 6e 88 da bd d6 98 e5 bd 73 a9 9c be
       0.28955773 -0.10670553 -0.11210792 -0.3059803
000190 c4 70 39 be 0c c8 a1 3d 78 f7 2a bd ec 0d 6b be
       -0.18109423 0.07899484 -0.04173991 -0.2295453
0001a0 c0 0f f3 3b 8e 31 5d be dc 5c 89 be 66 50 32 be
       0.007417649 -0.21600935 -0.2682866 -0.17413482
0001b0 52 b4 8d be cf 2f 4e be 65 d8 a1 3e d8 a4 74 3d
       -0.27676636 -0.20135425 0.31610408 0.05972752
0001c0 28 93 c7 3d 77 02 97 be b8 ac 54 be a4 91 d7 bd
       0.09744865 -0.29494068 -0.20769012 -0.105258256
0001d0 e8 8a 4a 3d 83 77 8e be 2c 86 0b be f5 db 41 be
       0.049448878 -0.27825555 -0.13625401 -0.18931563
0001e0 00 ba 65 3a a4 fc f0 bd 60 83 b3 bc 9d 6d 5b be
       0.0008763373 -0.117669374 -0.02191323 -0.21428533
0001f0 3e 44 5e be 62 ea 3c be 02 af dd bd 2f 95 7f be
       -0.2170572 -0.18448785 -0.10824396 -0.24959253
000200 69 c1 87 3e 3c 88 80 bd da 8d 89 3e 99 0b c3 3d
       0.26514748 -0.06275985 0.26866037 0.095236965
000210 d6 d2 8a be 3e 9b 5c 3e cb 05 b9 bd 7a ef fd bd
       -0.2711398 0.21543595 -0.09034308 -0.12399192
000220 4b 05 88 be cf ea a2 be 24 ec bf 3d 1c 4d 86 bd
       -0.26566538 -0.3181977 0.09371212 -0.06557676
000230 65 46 04 3e d5 c6 81 be c1 e3 76 3e f2 68 67 be
       0.12917478 -0.2534701 0.24110319 -0.22598627
000240 e3 a9 46 bd 36 47 95 3d cc 07 2d 3e 03 60 85 3e
       -0.04850186 0.07288973 0.16897506 0.26049814
000250 d0 92 90 3e 3d fc 83 be 07 a9 96 3d 3b 6e 11 be
       0.2823701 -0.2577838 0.07356458 -0.14202206
000260 6c 30 27 bd 10 9b 78 be be 62 90 3e 69 17 74 be
       -0.040817663 -0.24277902 0.28200334 -0.23837055
000270 0a 28 27 3e 51 fd d7 3d a3 4f de 3d a4 4b 28 be
       0.16323867 0.10546363 0.10855033 -0.16435105
000280 80 f6 8f 3e ab 82 81 3d 7b 66 0c 3d 0d ee 91 be
       0.28117752 0.06323751 0.03427742 -0.2850193
000290 34 85 01 3e 0d 73 5b bd dc 86 1a be 44 02 88 3e
       0.12648469 -0.053576518 -0.15090507 0.2656423
0002a0 bc 83 9c 3d 43 22 2c be 81 e5 23 be 00 6d 77 bc
       0.07642314 -0.16809945 -0.16005518 -0.015101671
0002b0 98 ce 34 3e 14 7e a5 bd 11 c3 38 be 1e c7 dd bd
       0.17656934 -0.08080688 -0.18043162 -0.10828994
0002c0 6c ea 71 be ac f7 e6 3d c6 a5 7a 3e 64 6d 98 be
       -0.23624581 0.112777084 0.244773 -0.29770958
0002d0 5b c5 a1 3d 49 fa 2c 3e e7 6d 81 3d 1c 14 db bd
       0.07898971 0.16892351 0.0631979 -0.10697195
0002e0 c4 c0 2e 3e d6 70 30 3e 38 ec fc 3d 74 85 50 bd
       0.17065722 0.17230543 0.12349743 -0.05090852
0002f0 39 a8 b5 bd 89 08 df 3c f9 11 7e bd f4 93 cd bd
       -0.088699766 0.02722575 -0.06202886 -0.100379854
000300 20 90 48 3e 06 f9 87 3e c1 74 19 bd d9 2a 9e bd
       0.1958623 0.26557177 -0.03746486 -0.07723016
000310 e2 3a 9f ba f2 22 cb bc 26 e2 a7 3d 89 46 c3 3d
       -0.0012148286 -0.024796937 0.08197431 0.09534938
000320 fa 0d 93 be 66 00 ef bd 17 59 88 3e 0c 4a fc 3d
       -0.287216 -0.11669998 0.2663047 0.12318811
000330 e0 d8 80 bc 35 3b 43 be f0 1c 46 be 4a 08 91 be
       -0.015728414 -0.19065554 -0.19346976 -0.28326637
000340 c0 1a d3 bd 78 b5 da 3d 0e 79 4e 3e 6c 81 15 3e
       -0.103078365 0.10679144 0.20163366 0.14600152
000350 3f 1e 8f be 45 bb 42 be 40 6a 4c bd 49 9f 9c 3e
       -0.27952763 -0.1901675 -0.049906015 0.30590275
000360 d0 5e 3b 3d e8 b7 a7 bd d6 f7 05 3e 0a ac f6 bd
       0.045744717 -0.08189374 0.13082823 -0.120445326
000370 b0 97 51 be 9e 59 6c 3e 82 3d 13 be 44 d4 81 bd
       -0.2046802 0.23081061 -0.14378932 -0.063393146
000380 40 11 a1 be aa b8 58 3e ce 55 75 3e 7c 07 ec 3d
       -0.31458473 0.21164194 0.23958513 0.11524865
000390 16 ca 61 be 48 cb 9f be b0 7f 83 be 7a 78 71 3e
       -0.22049746 -0.3120978 -0.25683355 0.23581114
0003a0 6e 77 1b 3e 2f 3f 88 3e 5a a3 29 3e 44 e9 a3 3d
       0.15182278 0.26610705 0.1656622 0.08003476
0003b0 80 f2 4a bb d4 43 76 be 03 b8 8a be e5 70 97 be
       -0.0030967295 -0.24049312 -0.27093515 -0.2957832
0003c0 d5 24 0b 3e 11 62 18 be 9e 4d 69 bd 33 ae 33 be
       0.13588269 -0.1488116 -0.056958787 -0.1754692
0003d0 29 8b 51 bd d0 d6 5c be 54 4c 4d be 99 45 e2 3d
       -0.051158104 -0.2156632 -0.20048648 0.11048431
0003e0 7f f9 cc bd 15 69 40 3e 4e c4 cf bd ae 8a 6d be
       -0.10008525 0.18790086 -0.10144864 -0.23197433
0003f0 30 89 64 bd 35 f8 1c be 68 23 c6 bd e4 22 9a be
       -0.055794895 -0.15329058 -0.09674722 -0.30104744

layers.0.bias f4 [100]
000000 70 8e 0e 3e 40 e6 0a be 6f f3 27 be 17 8a a9 3d
       0.13921523 -0.13564396 -0.16401456 0.08278292
000010 7f 2e 34 be bf a7 15 be 6c 38 da bd 40 4d f3 bd
       -0.17595862 -0.14614771 -0.10655293 -0.11879969
000020 fb 3c 07 be 6a a8 ae bd f4 4d a8 3d f4 04 83 be
       -0.13206856 -0.08528216 0.082179934 -0.25589716
000030 0c 00 44 be 8a 6e a0 3a 3b 54 4d 3d 7a 9e 2c 3e
       -0.19140643 0.0012239974 0.050129157 0.16857329
000040 e8 ec 69 be 14 b9 ce 3d 39 d6 3d 3e 37 72 2d 3e
       -0.22844279 0.100938946 0.1853875 0.16938101
000050 20 ce 96 be d8 23 f7 bd cc 2b 8b be 4e ea 4c be
       -0.29454136 -0.120673835 -0.27181852 -0.20011255
000060 ba 07 3b 3e 88 68 41 bd e4 9f 07 3e 92 3a 36 be
       0.18264666 -0.04721883 0.13244587 -0.1779578
000070 38 d4 44 3d 09 dd 43 be a6 df 21 3e 16 bb 06 be
       0.04805395 -0.19127287 0.15807971 -0.13157305
000080 76 66 a2 bd 1c 7a 8c be 00 ed 88 3a ad 27 9f 3e
       -0.07929699 -0.27436912 0.0010446608 0.31084958
000090 7e 2c 1d 3e 0f c5 2c be c4 0e 39 3c 38 06 0e bd
       0.15349004 -0.16872047 0.011295024 -0.0346739
0000a0 34 59 82 be 9c 45 7a 3e 10 cd 92 ba d2 59 94 3d
       -0.25458682 0.24440616 -0.0011200029 0.07243694
0000b0 7a 61 f6 bd 30 85 17 be 0f 76 38 3d fd d0 e1 3d
       -0.12030311 -0.14796901 0.045034464 0.110261895
0000c0 5c 43 91 3d c3 2f 15 be 09 89 99 3e 58 ab 3e bd
       0.07092926 -0.14569001 0.29987362 -0.046550125
0000d0 4b 31 4f be 13 74 17 be 57 48 9c 3e 00 80 7f 37
       -0.20233648 -0.14790373 0.3052394 1.5228987e-05
0000e0 54 48 4c bd a7 c2 06 be 03 93 8f bd 33 5d 88 be
       -0.049873665 -0.13160191 -0.07010462 -0.26633605
0000f0 86 aa 80 be 47 b0 42 3e 96 19 86 3e 67 af 95 3e
       -0.251301 0.19012557 0.26191396 0.29235384
000100 01 c7 69 be 7a 94 33 3e 9a 6e 48 be 03 2b 3d 3e
       -0.2282982 0.17537108 -0.19573441 0.18473439
000110 fb 50 72 3e 0a a7 72 3e a4 e5 64 3e 6a 55 4f 3e
       0.23663704 0.23696533 0.22353226 0.20247427
000120 89 77 72 3c 9c 92 15 3e cd 37 d7 bd 7d 47 16 3e
       0.014799007 0.14606708 -0.1050869 0.14675708
000130 a6 26 d0 bd 0c f5 b4 ba fd eb 8c be 08 57 a9 bd
       -0.101636216 -0.001380594 -0.27523795 -0.08268553
000140 67 49 2a be e8 75 da bd 0a c9 4e be b5 a0 91 be
       -0.16629563 -0.1066702 -0.20193878 -0.28442922
000150 d0 af a8 3c 6f 56 56 3e 81 6e 96 3e cd 90 34 3e
       0.020591646 0.2093141 0.29381183 0.17633362
000160 3f b6 21 be 13 21 a0 be 96 2a 01 3e 40 e2 3a 3e
       -0.15792178 -0.31275234 0.12613901 0.1825037
000170 20 00 8b be e6 03 e3 3d db e3 88 3e 00 ed 9c 3c
       -0.27148533 0.11084728 0.2673634 0.01915598
000180 28 16 43 be fc 13 81 3e 83 48 07 3e 6d e1 4f 3e
       -0.1905142 0.2521056 0.13211255 0.20300837

layers.2.weight f4 [100, 100]
000000 14 65 78 bd 66 3f 85 3d bc e4 8b bd c6 2b d9 3d
       -0.06064327 0.06506233 -0.06830737 0.10604052
000010 11 3a 12 bd be cf 76 3d b4 09 a4 3c bc 18 d9 3c
       -0.035699908 0.060256712 0.020024158 0.026501052
000020 c0 41 7b bc ba 3c 28 3d b3 b5 2a bd 4d 0a c1 bd
       -0.0153355 0.04107354 -0.041677188 -0.09425793
000030 9d 5e 1d bd 26 b2 ae 3d d3 fb 92 bc 08 2d 1d 3d
       -0.03842031 0.08530073 -0.017942345 0.038373023
000040 b1 11 fa bc 6d a1 99 3d 37 d4 88 3d de 54 2d 3d
       -0.030526014 0.07501493 0.06681102 0.042317264
000050 30 5f 51 bd 23 59 a7 bd 40 bd 76 3b 87 4b 70 bd
       -0.05111617 -0.08171298 0.0037649423 -0.05866578
000060 00 27 b6 3d cf ce c4 bd 5f 30 54 3d a1 15 de 3d
       0.088941574 -0.09609758 0.051803943 0.10843969
000070 aa 23 4d 3d 36 aa 0b 3d 32 0c c5 bd b7 dc d2 3d
       0.05008284 0.034097873 -0.09621467 0.10296004
000080 48 1f 8c bc ea 5d bf bd c3 2b ca 3d 45 38 0a bd
       -0.01710476 -0.093440846 0.09871628 -0.03374507
000090 60 d3 e7 bb 01 73 bb 3d 45 ba 7d bd da e4 90 bd
       -0.0070747584 0.09152795 -0.06194522 -0.070749
0000a0 54 37 85 3c ac 32 cf bb 4b e6 f2 3c d4 45 9d bd
       0.016261734 -0.006323179 0.029650828 -0.07679334
0000b0 e1 26 25 3c 70 2c 36 bd 6f 20 32 bd 97 34 ad bd
       0.01008007 -0.044475973 -0.043487962 -0.08457296
0000c0 6e 2d 59 3d e7 28 d5 3c 63 a0 9e bd f9 84 a2 3d
       0.05302184 0.02602048 -0.07745435 0.07935519
0000d0 f4 e6 0b 3d 6c 03 98 3c 97 d8 53 bd 00 14 77 3c
       0.0341558 0.01855632 -0.051720228 0.015080452
0000e0 20 98 d3 3d 19 78 8c 3d 80 62 8f bd 1f f2 ba 3d
       0.1033175 0.06858844 -0.07001209 0.09128212
0000f0 e0 fb fd 3b 48 37 61 3d ca 60 ac 3d 34 5c bd 3d
       0.007750973 0.05498436 0.084168985 0.09246102
000100 13 a6 9f bd 61 be c1 3d 54 18 8b bd 61 28 6f 3c
       -0.07795348 0.0946014 -0.067917496 0.014597029
000110 0f ae 80 bd 1e 82 76 bc 77 70 14 3b 8c 1d a1 bb
       -0.06283199 -0.015045671 0.0022650042 -0.0049168523
000120 57 08 0c bc 93 02 74 3c ac d9 d6 3d f3 04 85 3d
       -0.00854691 0.014893192 0.10490736 0.064950846
000130 ae 28 65 3d 53 9f 40 3d 63 8d 9e 3d a0 38 97 bb
       0.055947 0.047026943 0.07741811 -0.0046149045
000140 d8 45 02 3c c8 96 a8 3c c2 9c b2 bd 62 fa a4 bd
       0.007951222 0.02057971 -0.087213054 -0.08055569
000150 c0 de 48 3c a2 04 05 bd e2 a7 af 3b 10 44 83 bc
       0.012260139 -0.03247512 0.0053605894 -0.016023666
000160 65 e4 b7 3c ff 3e 85 3d fc cb d5 bc a9 5b b2 3d
       0.022447774 0.06506156 -0.026098244 0.08708889
000170 c7 b3 a1 3d 65 1f 8f bd e5 26 9e bd d3 b2 a5 bd
       0.07895618 -0.0698841 -0.07722262 -0.08090749
000180 17 78 60 bd 0f 2f 03 bd b6 34 52 b9 61 d9 8d bc
       -0.054802027 -0.0320273 -0.00020046797 -0.017315568
000190 29 e1 51 bd 8f 95 04 bd aa 2b 14 bd 89 a5 c7 3d
       -0.05124012 -0.032369193 -0.036174454 0.0974837
0001a0 a5 7c 19 bd 12 a3 92 bd 0e 45 2a 3d e0 45 bd bb
       -0.037472386 -0.071600094 0.041569762 -0.005776152
0001b0 99 c9 9c 3d 72 ee 7f 3d d9 27 bc 3d bb fc 95 bd
       0.07655639 0.06248326 0.09187288 -0.07323595
0001c0 8f a8 83 3d 9e 3d aa 3d e7 60 4b bd e8 d7 ba 3d
       0.064286344 0.08312534 -0.04965296 0.09123212
0001d0 9d d3 97 3d 00 8a 8f 3a b1 cc 42 3d c7 22 12 bd
       0.07413409 0.0010951161 0.04755849 -0.035677698
0001e0 8d 9f b2 bd d4 13 cf 3c 64 39 f4 3c 50 d9 85 bd
       -0.08721838 0.02527801 0.029812522 -0.0653559
0001f0 b2 7c 45 3d df f1 ae bd e7 c1 ae 3d 93 0e c5 3d
       0.04821462 -0.08542227 0.08533078 0.096219204
000200 bc 08 df 3c 56 7f 80 bd 2e 57 47 3d ce 47 87 3c
       0.027225845 -0.062742874 0.048667125 0.016513731
000210 84 c1 de 3c ce 9d 06 3d f5 ec 9b 3d b0 d2 32 bd
       0.027191885 0.032865338 0.07613555 -0.04365796
000220 68 46 b8 bc 94 66 df 3c 82 a1 26 3c 69 25 a5 3d
       -0.02249451 0.027270593 0.010170342 0.08063776
000230 40 23 57 bd b2 f5 8c bb c7 f4 90 3c 87 ba dc bc
       -0.05252385 -0.00430175 0.017694844 -0.026944412
000240 25 44 8a 3d f0 35 33 3c 32 57 bf bd 31 41 3e bc
       0.06751279 0.010938153 -0.09342803 -0.0116122225
000250 e3 c6 39 bd c4 c8 11 3c 4e b1 4a bc eb 25 cb bd
       -0.04535569 0.008897964 -0.012371374 -0.09919342
000260 76 05 95 bc c0 ec 1c bc d1 24 f7 bc 8f 2a bc 3d
       -0.01819108 -0.00957793 -0.030168923 0.09187805
000270 dd e3 bb bc 29 91 83 3d 0c 3c c4 3c e3 e0 ac bd
       -0.022935802 0.064241715 0.023954414 -0.08441331
000280 28 80 c0 3c 24 8a a8 3d 2e 25 87 bd 26 bc 85 bd
       0.02349861 0.08229473 -0.06598888 -0.06530027
000290 e1 77 c8 3d 06 15 a3 3d 6d 83 64 bd 07 34 73 3d
       0.0978849 0.07962994 -0.0557894 0.05937579
0002a0 fa ec 5c bc bc 40 cb bd c5 d3 e0 3b e5 69 01 3d
       -0.013484234 -0.099244565 0.0068611824 0.03159513
0002b0 d8 4a fc bc 66 bf 0b 3d a2 bc af bd 1d 9e 8c 3d
       -0.030797407 0.03411808 -0.08580901 0.06866095
0002c0 59 99 ae 3d 56 99 5c 3d e8 d8 8a 3c be e6 06 3d
       0.085253425 0.05385717 0.016949132 0.032934897
0002d0 be 2e 94 bd 40 b2 cc bc 00 6a 1c bc cd ef 63 bd
       -0.07235478 -0.02498734 -0.009546757 -0.055648614
0002e0 f6 44 97 bd b5 35 89 3d 4c 8f 89 3d ae 79 bb bd
       -0.073862 0.06699697 0.06716785 -0.09154068
0002f0 fb cc ff 3c 4e a0 26 3d af 04 c1 3d fa 4b 6a 3d
       0.031225672 0.040680222 0.094247214 0.057201363
000300 b9 47 bc 3d a6 0b 08 bd 6b 70 8f 3d a9 95 a6 3d
       0.091933675 -0.033214234 0.07003864 0.08134014
000310 fd 65 c1 bd df c2 a5 bd 46 42 9e 3c 3f 90 5c 3d
       -0.09443281 -0.08093809 0.019318711 0.0538485
000320 1b c9 29 bd 2a 1b 9d 3c 00 3a 18 b9 00 ee 09 3d
       -0.041451555 0.019177992 -0.00014517456 0.03367424
000330 02 11 3c bd c6 07 67 3d a5 31 88 3d 28 1a 8e bd
       -0.045914657 0.056403898 0.06650094 -0.06938583
000340 00 f3 7d 3a 00 78 91 39 6e 87 03 3d db c9 be 3d
       0.0009687394 0.00027745962 0.032111578 0.093158446
000350 cc 3d f0 3c 20 95 6e bc 60 cb cb 3d 24 ab f4 bc
       0.029326342 -0.014561921 0.099509 -0.029866762
000360 b1 d3 af bc 80 b9 df 3b f5 15 8b bd 79 99 9c 3c
       -0.021463247 0.0068275332 -0.06791297 0.01911615
000370 a8 f3 8a bd 18 76 28 3c 98 f8 1c 3c d8 c9 62 3c
       -0.06784755 0.010282062 0.009580754 0.013842069
000380 b4 26 9c bd 0d 84 c2 bd 04 9e 5e 3d c4 0d c4 3d
       -0.076245695 -0.09497843 0.054349914 0.09572938
000390 df bb b5 bd a6 b6 17 3d f8 c1 96 bd b3 1a 6b 3c
       -0.08873724 0.03703942 -0.07361215 0.014349627
0003a0 89 89 be 3d 7f 5d 9b 3d c8 bc 95 bd 22 8b 8f 3d
       0.093035765 0.07586192 -0.07311398 0.07008959
0003b0 ee f0 55 3d 00 d6 20 b9 01 12 d8 3d d7 ae 22 bd
       0.05223172 -0.0001533851 0.10550309 -0.03971752
0003c0 0c a4 be bc 8a 05 2d bd f9 63 b4 3c 71 e7 0e 3d
       -0.023271583 -0.04224161 0.022020327 0.03488869
0003d0 01 23 86 3c c7 74 66 bd ea 4a 1d bd b3 01 2d 3d
       0.016374113 -0.05626371 -0.03840152 0.04223795
0003e0 f5 92 b3 bd 1e ab f4 bb 68 ea c7 3b 83 f4 25 bd
       -0.08768264 -0.007466688 0.0061009414 -0.040516388
0003f0 0c 51 2a 3d b0 33 d3 3b 43 aa a0 3d 40 82 11 bc
       0.0415812 0.0064453706 0.07844975 -0.008881152

layers.2.bias f4 [100]
000000 f6 d8 af 3c d1 88 82 bd 6d 59 be 3c 4f 95 bb 3d
       0.02146576 -0.06373752 0.023236 0.09159338
000010 63 4e d8 bc 43 8d 6b bd da f9 61 bd 60 7b 91 bd
       -0.026404565 -0.057507765 -0.055169918 -0.0710361
000020 92 7e 4f 3d d0 96 71 bd 08 05 81 3d 68 73 5d 3d
       0.050657816 -0.058981717 0.06299788 0.054065138
000030 c6 6a 76 3d a0 24 9d bb 4f 7e e8 bc ca 60 14 3d
       0.06016042 -0.004795626 -0.028380541 0.036225118
000040 dc cd bc bc 4c d3 10 3d b4 dc b6 3c 34 ca 03 3d
       -0.02304738 0.03535776 0.022322036 0.032175258
000050 60 17 2f bd fe 44 6a 3d ec 1f 9d bc 5e be 68 3d
       -0.0427469 0.057194702 -0.01918026 0.056822173
000060 d0 ff c9 bb 75 46 c9 bd 70 96 0b bc 40 99 02 bd
       -0.0061645284 -0.09827892 -0.008519754 -0.03188443
000070 f9 a3 29 bd f9 60 a1 bb 55 07 06 bd f0 ad c8 b8
       -0.041416142 -0.00492489 -0.032721836 -9.5691415e-05
000080 60 db f1 bc e0 23 7e bd b0 a0 06 3d cd b9 a7 bd
       -0.029523551 -0.06204593 0.032868087 -0.081897356
000090 ad 8c 9e bd 24 b9 bb bc e2 8b 65 bc a8 f8 cc bd
       -0.077416755 -0.02291543 -0.014010401 -0.10008365
0000a0 5e 79 48 3d 70 36 07 3c b9 70 49 3d 80 58 81 ba
       0.04894387 0.008252725 0.049179766 -0.0009868294
0000b0 f8 27 64 bc f1 25 e5 bc 41 66 54 bb 41 c8 9d bd
       -0.013925545 -0.027972193 -0.003240958 -0.07704211
0000c0 66 e2 33 3d f4 d7 e8 3c 09 e9 a1 3d 63 51 bf bd
       0.043917082 0.028423287 0.07905776 -0.09341695
0000d0 22 bb 57 bb b2 a1 46 bd 1f ff b0 3b 59 d9 2b 3c
       -0.0032917936 -0.04849405 0.0054015066 0.010488831
0000e0 00 f2 73 bc e8 fd 04 bc ac 40 87 bc 14 42 c7 3c
       -0.01488924 -0.008117177 -0.01651033 0.0243235
0000f0 2d e7 5f bd e7 54 80 bc 53 25 6a 3d 49 7e 83 3d
       -0.054663826 -0.015665485 0.0571645 0.06420571
000100 a8 3d 37 3c c0 f9 33 bc 26 9b 3b 3c f1 4f 5b 3d
       0.011184134 -0.010984838 0.0114505645 0.053543035
000110 94 b1 96 3c 4a 5a 6e bd c6 62 a1 bd 80 b1 57 3d
       0.018395223 -0.058191575 -0.07880168 0.05265951
000120 51 20 48 bd b2 41 09 3d ea d4 ba bd b4 7a 77 3d
       -0.048858944 0.033509918 -0.091226414 0.060419753
000130 b6 3a 0e 3d 0b 0d d9 bc 65 f9 a2 bd 58 fa 38 bc
       0.03472396 -0.026495477 -0.079577245 -0.011290155
000140 90 b5 78 3d 71 f3 87 3d 00 cf 72 bb 68 95 07 bc
       0.060720026 0.0663823 -0.003704965 -0.008275367
000150 2c 63 99 3d 8c bf 8e 3c 09 92 c3 3d e6 27 ae 3d
       0.07489619 0.017425321 0.09549338 0.08503704
000160 b4 fb 84 bd fd 63 90 bd e4 f3 07 bd 30 86 7a bc
       -0.06493321 -0.07050321 -0.033191577 -0.015290782
000170 1f d2 c7 3d 72 0b 9a bd cc d5 57 3d a1 82 ae 3d
       0.09756874 -0.07521714 0.052694127 0.08521009
000180 00 fe cd 3b 05 62 9b bd 92 9e 9a bd 50 43 00 3c
       0.0062863827 -0.07587055 -0.07549776 0.007828549

layers.4.weight f4 [10, 100]
000000 41 ab 00 3d 6d dc d7 3c c3 26 85 3d fc 9e 88 3d
       0.03141332 0.026350224 0.06501534 0.06670949
000010 9c ea ad bd 62 03 41 3d b8 40 80 3d df a2 45 bd
       -0.08492014 0.047122367 0.06262344 -0.04825103
000020 9a 89 7f bd b5 e8 b7 bd 6a 53 c5 bd 15 aa 5f 3d
       -0.062387086 -0.08979932 -0.096350506 0.054605562
000030 7c e4 e8 3c 6d 7f 5e bd 4f 1b b2 bd 20 63 be bd
       0.028429262 -0.05432074 -0.08696615 -0.0929625
000040 d8 1d bc 3d 9a 4b 0f 3d 28 ee 85 3c 7c a3 c9 bb
       0.0918538 0.03498421 0.016348913 -0.006153522
000050 0e 35 27 3d 00 57 23 3c 42 d2 30 3d dc 03 d1 3c
       0.04082208 0.009969473 0.043169267 0.025514536
000060 57 04 53 bd 17 72 3f bd a4 c4 d7 3c bc 94 cf 3c
       -0.05151781 -0.046739664 0.026338883 0.025339477
000070 c2 74 96 3d 32 f5 91 bd 49 82 51 3d 66 c1 b7 bd
       0.073464885 -0.071268454 0.05114964 -0.08972435
000080 80 60 0c 3c f5 49 a6 bd 3e f6 3e bd cd 1e 6a bd
       0.008567929 -0.08119575 -0.046621554 -0.05715828
000090 21 b7 b6 3d f5 54 b7 3d c0 61 4b bd 48 0c 95 bb
       0.08921648 0.08951751 -0.04965377 -0.004548583
0000a0 36 09 a6 bd 8e cb a7 bd fd 27 44 bd d8 65 1f 3c
       -0.081072256 -0.08193122 -0.0478897 0.009728871
0000b0 42 c3 b2 bd 0e c0 93 bc 8a 59 87 3c c5 b5 22 3b
       -0.08728649 -0.018035915 0.016522188 0.0024827581
0000c0 a0 62 4f bb f8 6c 93 3c 8b 4c d0 3d eb ea ae bd
       -0.0031644478 0.017996296 0.101708494 -0.08540901
0000d0 f4 d3 8d bd bc 28 48 3d 9d ea fe 3c ff 41 b3 3d
       -0.069251925 0.048866972 0.031117732 0.08752822
0000e0 e5 ff a2 3d 26 1b 98 bd d8 12 ba bc 05 69 b8 bd
       0.07958964 -0.07427053 -0.022714064 -0.09004406
0000f0 1e 15 25 3d eb 58 81 3d d3 64 9c bd f2 96 58 bd
       0.040303342 0.06315788 -0.07636418 -0.052878328
000100 62 c7 5a 3d 14 94 c7 3c 59 e2 8a bd 11 36 13 3b
       0.053412803 0.024362601 -0.06781454 0.0022462646
000110 de 20 88 bd a6 d3 1e 3d b8 bb 97 3c 70 02 f5 3c
       -0.06646894 0.038776062 0.018522128 0.029908389
000120 48 ea 0c bb 5e a2 19 3c a2 c4 a2 bd 58 7c c2 3d
       -0.0021501947 0.00937709 -0.07947661 0.09496373
000130 5d 1e db ba 1d 64 7c 3b 85 ad 09 3c b5 a3 c0 bd
       -0.0016717423 0.003851182 0.008403187 -0.09406225
000140 95 3a ea 3c 83 fc b4 3d f6 4c 6e 3d 98 12 64 3c
       0.028592387 0.08837225 0.058178864 0.013920449
000150 a5 e9 fe 3c 98 8c 91 3c 00 da 86 39 41 17 3e 3d
       0.03111727 0.017767236 0.00025720894 0.046408895
000160 c6 ec 06 3d 86 07 05 3d 50 fd 76 bd 30 9c 47 bc
       0.03294065 0.032477878 -0.06030017 -0.012183234
000170 b9 5a 85 3d 93 d6 86 3d 7a 62 5a bd d4 95 11 3d
       0.065114446 0.065838955 -0.05331657 0.035543278
000180 f0 a6 88 bd be 4e ec 3c 22 29 0e 3d 79 69 6c bd
       -0.06672466 0.028846141 0.034707196 -0.057717774
000190 60 6f a3 3d e2 45 a2 3d 17 25 a0 3d 67 36 0d 3d
       0.079802275 0.07923485 0.07819574 0.03447571
0001a0 61 70 44 3d 40 89 f1 ba 29 49 43 bd 2d ee 18 3d
       0.047958735 -0.0018427745 -0.047677193 0.037336517
0001b0 47 c9 30 bd 3c 4e d3 3c d9 23 36 bd 6e c3 0f bd
       -0.043160703 0.025794141 -0.04446778 -0.035098486
0001c0 40 56 a1 bd 98 e4 dc bc e6 ef 89 3d a4 b0 fe 3c
       -0.07877779 -0.02696447 0.0673521 0.031090088
0001d0 23 90 1e bb 43 9d 8f 3d a9 2b 92 3d 3e a6 12 bd
       -0.00241948 0.07012417 0.07137234 -0.035803072
0001e0 ae 93 97 bd fc c4 a8 3d 12 c2 b9 bd 6d 12 9e bd
       -0.074012145 0.08240697 -0.09070219 -0.07718358
0001f0 96 ff a7 bd c5 0c 84 bd a0 95 8a bd 00 a5 46 3b
       -0.08203046 -0.06447748 -0.0676682 0.003031075
000200 80 1b 15 bd 1e 86 ac 3d 52 00 ab bd 85 ee 8c bd
       -0.03640318 0.08424018 -0.083496705 -0.068814315
000210 72 d6 bc bd 18 79 b4 bd 26 a6 00 3d 65 c6 8d bd
       -0.0922059 -0.08812159 0.03140845 -0.069226064
000220 ec fa b2 bc 2b d5 3b bd 4d 15 04 bd ce 03 18 bd
       -0.021848164 -0.04585759 -0.032246877 -0.037113003
000230 f5 8e 91 3d b7 5f 35 bd ef 52 2d bd 3e dc 68 3d
       0.07107345 -0.044280734 -0.04231542 0.056850664
000240 f8 77 c9 3d e2 bd b5 3d ee 7a 02 bc 88 c0 a4 3c
       0.09837335 0.08874108 -0.007963879 0.020111337
000250 9a 81 54 bd 98 60 20 bc c0 3d 8d 3c 0d 5d 6f bd
       -0.05188141 -0.009788655 0.017241359 -0.05843835
000260 66 57 e8 bb 2c 50 52 3d 06 fd d1 3c 63 3c cd 3d
       -0.007090497 0.05134599 0.025633346 0.100212835
000270 0a 99 0c bd ed a8 2b bd f0 5d c1 bd e2 75 43 3d
       -0.034325637 -0.041909147 -0.09441745 0.047719844
000280 f0 26 46 bd 35 c3 b6 bd 4b ce 9c 3c 28 9f 03 bd
       -0.048376977 -0.089239515 0.019141337 -0.032134205
000290 e3 9a 77 bd c2 bd 71 3d 46 33 86 bd f7 bd 6a 3d
       -0.060450446 0.059018858 -0.065527484 0.05731007
0002a0 31 43 ae 3d db 22 80 3d 60 6c 25 bd 0c 7b a8 3d
       0.085089095 0.06256648 -0.040386558 0.08226594
0002b0 08 09 7a bd 49 91 9d 3d 1d 73 b3 bc db ff 23 bd
       -0.06104377 0.076937266 -0.021905476 -0.040038925
0002c0 77 2f 60 3c 19 7e c4 3d f5 c7 bc bc 51 8e 95 3d
       0.0136831915 0.09594364 -0.023044566 0.07302535
0002d0 e2 20 fe 3c ec 41 85 bd 1b 47 97 bd 7d 6e ae 3d
       0.03102154 -0.06506714 -0.07386609 0.08517168
0002e0 a6 2a c9 3d 9e ff 74 3d a9 f1 c5 3d 21 ab 70 bd
       0.09822588 0.059814088 0.09665234 -0.05875695
0002f0 a0 68 58 bd 17 ea 19 bd fa 64 63 bd ec d7 c7 bc
       -0.052834153 -0.03757676 -0.05551622 -0.024394952
000300 1c ce 32 3d 68 c3 6a 3c 9a c2 89 3d 9f 3d bc bc
       0.043653592 0.014328815 0.067265704 -0.022978602
000310 0f dc ae 3d be 93 d7 3c e9 52 81 3d 4f e3 ac 3d
       0.085380666 0.026315566 0.06314642 0.08441793
000320 91 7b 69 bb 90 9c c1 3d 5a b5 5e 3d b6 ca 75 bd
       -0.003562663 0.0945369 0.05437217 -0.060007773
000330 4a 04 0c 3c ba 40 47 bd dc 27 ba 3c ba b8 71 bd
       0.0085459445 -0.048645712 0.022724085 -0.05901406
000340 fa 2f 18 bd 77 9d 28 bd 12 c1 c3 bd 46 47 b1 3d
       -0.03715513 -0.041165795 -0.095583096 0.086561725
000350 4a 39 0c bd 00 fc fa bc 3b 5e 50 ba 80 ac e6 3a
       -0.034234323 -0.030637741 -0.0007948612 0.0017599016
000360 62 e5 a6 bd ad 3f ec 3c e7 59 7f bd 3d 90 9f bd
       -0.0814922 0.028838957 -0.062341597 -0.07791183
000370 ba e0 75 bd 0c e6 a1 bd d1 70 a0 3d 0a 9d 1c 3d
       -0.06002877 -0.07905206 0.07834018 0.0382357
000380 4f 76 b3 3d 46 cf a4 bd 62 95 a2 bd 32 7d 22 3d
       0.087628 -0.08047347 -0.07938649 0.039670177
000390 54 2a 3b bd 99 c1 f2 bc 0c 59 68 bd dd 3d a9 bd
       -0.045694664 -0.02963333 -0.056725547 -0.082637526
0003a0 1d 4c 71 bd 64 c9 80 bd 76 3d 55 3d 40 fa 2c bb
       -0.058910478 -0.06288412 0.052060567 -0.0026394278
0003b0 12 f7 7f 3d 1a e6 b8 3d 6e 1c 92 3d aa 42 9d bd
       0.062491484 0.090282634 0.07134329 -0.07678731
0003c0 b1 3c 73 3d 62 47 69 3d 42 ad 35 bd c0 8a ac bc
       0.05938405 0.05695284 -0.044354685 -0.021062255
0003d0 d9 89 0d 3d 88 7e 15 bc 39 c6 73 bd 5e c2 90 bc
       0.03455529 -0.009124406 -0.05951521 -0.017670806
0003e0 48 0c e2 bc e2 95 7a 3d a2 1c 37 3d 13 07 80 3d
       -0.027593747 0.061178096 0.04470504 0.06251349
0003f0 6f 3d 57 bb 79 7d b4 bd ff cf c7 3d e5 dd 84 3b
       -0.0032843014 -0.088129945 0.09756469 0.004054772

layers.4.bias f4 [10]
000000 b1 ff 43 bd ea 36 7c bd b4 d8 c7 bd 92 98 71 3d
       -0.04785127 -0.061575808 -0.0975813 0.058983393
000010 27 b1 1a 3d 9c 93 77 bc 83 3b b7 3d 87 38 83 bd
       0.037766602 -0.015110876 0.08946898 -0.06407266
000020 3d f6 31 bc d6 3e 2c bc
       -0.01086193 -0.010513028

Sigma f4 [10, 10]
000000 b0 29 9e bf 42 01 71 bf e9 7d 34 3f 9c 6c 3e 40
       -1.2356472 -0.94142544 0.70504624 2.975379
000010 83 0d 9a bf a9 3e 0b bf fb ad c7 be f7 a4 82 3f
       -1.2035373 -0.54392487 -0.38999924 1.0206593
000020 b4 b8 73 bf 0c 54 02 40 4d 80 bc bd cc 1d 07 40
       -0.9520371 2.0363798 -0.09204159 2.1111937
000030 08 48 1d 40 84 3d a7 3f 9c c2 ec 3e fb 54 89 bf
       2.4575214 1.3065648 0.46242225 -1.0729059
000040 fb 94 7a 3e 31 d4 99 bd 24 7f 4d 3e 31 cc 14 bf
       0.24470894 -0.075111754 0.20068032 -0.5812407
000050 74 72 e1 3f c1 00 bd 3e 9d 2c 21 bf 17 a5 63 bd
       1.7613053 0.36914638 -0.629587 -0.055577364
000060 2a 86 8e 3f 25 1b a6 bf 68 ea 8b be 4f af df bd
       1.1134694 -1.2977034 -0.27327275 -0.10922109
000070 f3 4b 09 3f 3f 24 58 3f cf 0d af 3f a3 cd fc be
       0.53631514 0.8443031 1.3676089 -0.49375638
000080 8b 68 b4 be 07 a5 9b be 44 f9 a8 bd 94 9a bc 3a
       -0.3523601 -0.30399343 -0.08250669 0.001438933
000090 27 5d 50 3f fd 3c 5d bf 43 ba 26 be 4f e0 8d bf
       0.8139214 -0.86421186 -0.1628199 -1.1084079
0000a0 5b f0 87 3e b5 07 10 3f 0e 89 a2 3b a9 31 11 3f
       0.26550564 0.5626176 0.004960186 0.567164
0000b0 b6 5e e7 bf 82 36 db 3d 4e c5 79 bf 6f f5 e4 be
       -1.8075778 0.10703756 -0.9756669 -0.447185
0000c0 3b 96 86 3f 46 6b 91 bb f5 23 13 bf 88 46 21 3f
       1.0514597 -0.004437837 -0.5747674 0.6299825
0000d0 be 7a e8 3e b7 f2 43 bf c1 1d f7 3e 5c 8a 0a 40
       0.45406145 -0.7654223 0.48264888 2.1646948
0000e0 7d 0a e0 bf 71 50 d3 3f 22 7d 00 bf 9b 5f 3e bf
       -1.7503201 1.6508924 -0.5019094 -0.7436463
0000f0 36 37 a6 3f 38 c3 d9 3e 95 47 99 3e ec d5 16 3f
       1.2985599 0.42531753 0.29937425 0.5892017
000100 21 a5 ea bf 26 3e 4c 3f ac ef 20 3c 82 a4 8a bf
       -1.8331643 0.7978233 0.009822767 -1.0831454
000110 fd 4f 5e 3d 61 df 83 3e 21 79 80 bf b3 4d 2e bf
       0.0542755 0.25756362 -1.0036966 -0.6808731
000120 70 10 8d bf 27 4c a2 3f 08 27 21 bf a8 d5 81 be
       -1.1020641 1.267949 -0.6295018 -0.2535832
000130 c6 51 4b 3f 9c 8f 7e 3f 71 c0 8e 3d 56 67 a6 bf
       0.7942165 0.9943788 0.06970299 -1.3000286
000140 84 43 15 3d ac 1d f6 3d 01 c4 f4 be c9 3b a1 3d
       0.03644134 0.12017378 -0.4780579 0.07872731
000150 d9 5d 56 3f 5e b4 91 bf 9d cc 16 bf 7e 2d 83 bf
       0.8373695 -1.1383169 -0.58905965 -1.0248258
000160 00 52 fe 3e 60 ec f5 3f eb be 07 be 89 e4 29 3f
       0.49671936 1.9212761 -0.13256423 0.6636434
000170 d4 1f 49 3e 7a 19 03 40 5f 85 16 bf 73 23 e5 3f
       0.19641048 2.04843 -0.5879726 1.7901443
000180 3d ef b6 3e 34 bc 3a 3f a9 46 f0 bf 0f 5a 49 bf
       0.357294 0.72943425 -1.8771564 -0.78653044

exp_avg f4 [100, 10]
000000 f4 f6 99 3c 68 8b 4f 3c f6 3c ea 3b 70 99 9f 3b
       0.018794514 0.012667514 0.0071483804 0.004870586
000010 9a d9 52 3c ef 0d 45 3b 44 35 ad 3a 4a 79 ac 3a
       0.012869263 0.003006812 0.0013214727 0.0013158706
000020 30 b5 c6 b8 26 1b 58 bb 4c b4 c2 bf 80 68 82 bf
       -9.4751245e-05 -0.0032975166 -1.5211272 -1.0188141
000030 2c b6 04 bf 3d ff 03 bf c2 5e 83 bf ce 51 c8 bd
       -0.5184047 -0.5156134 -1.0263293 -0.09781228
000040 68 2d 58 be 86 c4 c8 bd 44 f8 d0 3d b4 f3 57 3e
       -0.21111071 -0.09803109 0.10203603 0.21089059
000050 00 00 00 00 00 00 00 00 00 00 00 00 00 00 00 00
       0.0 0.0 0.0 0.0
000060 00 00 00 00 00 00 00 00 00 00 00 00 00 00 00 00
       0.0 0.0 0.0 0.0
000070 00 00 00 00 00 00 00 00 64 4a 61 bf fb 3e 17 bf
       0.0 0.0 -0.88004136 -0.59080476
000080 60 c9 99 be 40 79 98 be 95 5d 18 bf 7a 88 7a bd
       -0.3003645 -0.29780006 -0.59517795 -0.06116531
000090 10 e4 f6 bd bd a1 69 bd 7a ca 76 3d 48 0b fb 3d
       -0.12055218 -0.05703901 0.06025169 0.12258011
0000a0 4c d1 be 3e 80 3d 7d 3e 6d f2 00 3e 82 76 01 3e
       0.37269056 0.24730492 0.12592478 0.12642863
0000b0 dc 73 80 3e 0f 5d bf 3c 13 62 54 3d ff b6 cd 3c
       0.25088394 0.023359803 0.051851343 0.025111673
0000c0 59 a7 cf bc 0c 4d 50 bd 00 00 00 00 00 00 00 00
       -0.025348352 -0.050854728 0.0 0.0
0000d0 00 00 00 00 00 00 00 00 00 00 00 00 00 00 00 00
       0.0 0.0 0.0 0.0
0000e0 00 00 00 00 00 00 00 00 00 00 00 00 00 00 00 00
       0.0 0.0 0.0 0.0
0000f0 00 00 00 00 00 00 00 00 00 00 00 00 00 00 00 00
       0.0 0.0 0.0 0.0
000100 00 00 00 00 00 00 00 00 00 00 00 00 00 00 00 00
       0.0 0.0 0.0 0.0
000110 00 00 00 00 00 00 00 00 00 00 00 00 00 00 00 00
       0.0 0.0 0.0 0.0
000120 00 00 00 00 00 00 00 00 00 00 00 00 00 00 00 00
       0.0 0.0 0.0 0.0
000130 00 00 00 00 00 00 00 00 00 00 00 00 00 00 00 00
       0.0 0.0 0.0 0.0
000140 00 00 00 00 00 00 00 00 00 00 00 00 00 00 00 00
       0.0 0.0 0.0 0.0
000150 00 00 00 00 00 00 00 00 00 00 00 00 00 00 00 00
       0.0 0.0 0.0 0.0
000160 00 00 00 00 00 00 00 00 00 00 00 00 00 00 00 00
       0.0 0.0 0.0 0.0
000170 00 00 00 00 00 00 00 00 00 00 00 00 00 00 00 00
       0.0 0.0 0.0 0.0
000180 00 00 00 00 00 00 00 00 00 00 00 00 00 00 00 00
       0.0 0.0 0.0 0.0
000190 00 00 00 00 00 00 00 00 00 00 00 00 00 00 00 00
       0.0 0.0 0.0 0.0
0001a0 00 00 00 00 00 00 00 00 00 00 00 00 00 00 00 00
       0.0 0.0 0.0 0.0
0001b0 00 00 00 00 00 00 00 00 00 00 00 00 00 00 00 00
       0.0 0.0 0.0 0.0
0001c0 00 00 00 00 00 00 00 00 00 00 00 00 00 00 00 00
       0.0 0.0 0.0 0.0
0001d0 00 00 00 00 00 00 00 00 00 00 00 00 00 00 00 00
       0.0 0.0 0.0 0.0
0001e0 00 00 00 00 00 00 00 00 00 00 00 00 00 00 00 00
       0.0 0.0 0.0 0.0
0001f0 00 00 00 00 00 00 00 00 00 00 00 00 00 00 00 00
       0.0 0.0 0.0 0.0
000200 00 00 00 00 00 00 00 00 d4 83 b6 be d2 2d 76 be
       0.0 0.0 -0.35647452 -0.24040917
000210 d7 c9 fa bd 58 b7 f9 bd 58 1a 77 be da a9 b7 bc
       -0.12245529 -0.12193173 -0.24131143 -0.022419859
000220 d4 14 51 bd 76 dc ac bc 3a bb c2 3c 57 42 4b 3d
       -0.051045254 -0.021101218 0.023770917 0.049623813
000230 5e 94 f8 bf dd e6 a6 bf e1 4d 29 bf 38 5b 28 bf
       -1.9420278 -1.3039204 -0.6613446 -0.6576419
000240 76 d5 a7 bf d8 43 06 be c0 28 89 be b2 dd fa bd
       -1.3112018 -0.13111818 -0.26788902 -0.12249316
000250 08 ee 07 3e 78 91 8a 3e a2 d1 57 3f 1e ce 10 3f
       0.13274395 0.2706411 0.8430425 0.5656451
000260 45 e9 91 3e 3c 78 90 3e ec 16 11 3f 2c 21 6c 3d
       0.28498283 0.28216732 0.566756 0.057648823
000270 6b 9a e9 3d 38 92 61 3d d4 a8 6b bd e7 86 ec bd
       0.11406406 0.055071086 -0.057534054 -0.11549168
000280 50 53 ed 3e 16 36 a0 3e 0a 55 21 3e 78 c0 1d 3e
       0.46352625 0.31291264 0.15755096 0.15405452
000290 5f c5 9f 3e 3a eb 0f 3d 23 dc 79 3d fd e1 f6 3c
       0.3120527 0.03513644 0.061000954 0.030137056
0002a0 f3 d7 01 bd 23 fe 82 bd 00 00 00 00 00 00 00 00
       -0.031700086 -0.06396129 0.0 0.0
0002b0 00 00 00 00 00 00 00 00 00 00 00 00 00 00 00 00
       0.0 0.0 0.0 0.0
0002c0 00 00 00 00 00 00 00 00 00 00 00 00 00 00 00 00
       0.0 0.0 0.0 0.0
0002d0 79 d9 80 bf 3e f2 2c bf 90 68 b1 be 88 90 b0 be
       -1.0066367 -0.6755713 -0.34650087 -0.3448527
0002e0 f5 d8 2e bf a7 37 80 bd df e8 11 be f8 5d 81 bd
       -0.682998 -0.06260615 -0.1424899 -0.06316751
0002f0 ee d3 86 3d e0 ef 11 3e bc be b6 3d 06 74 7f 3d
       0.06583391 0.14251661 0.089230984 0.062366508
000300 98 fc ef 3c ee 93 d2 3c 48 81 72 3d 07 31 67 3c
       0.02929525 0.025705304 0.059205323 0.01411081
000310 7c ab fa 3b 54 4c af 3b 05 d5 f1 bb 0a f3 4c bc
       0.007649837 0.005349675 -0.0073801302 -0.012509117
000320 00 00 00 00 00 00 00 00 00 00 00 00 00 00 00 00
       0.0 0.0 0.0 0.0
000330 00 00 00 00 00 00 00 00 00 00 00 00 00 00 00 00
       0.0 0.0 0.0 0.0
000340 00 00 00 00 00 00 00 00 00 00 00 00 00 00 00 00
       0.0 0.0 0.0 0.0
000350 00 00 00 00 00 00 00 00 00 00 00 00 00 00 00 00
       0.0 0.0 0.0 0.0
000360 00 00 00 00 00 00 00 00 00 00 00 00 00 00 00 00
       0.0 0.0 0.0 0.0
000370 00 00 00 00 00 00 00 00 00 00 00 00 00 00 00 00
       0.0 0.0 0.0 0.0
000380 00 00 00 00 00 00 00 00 00 00 00 00 00 00 00 00
       0.0 0.0 0.0 0.0
000390 00 00 00 00 00 00 00 00 00 00 00 00 00 00 00 00
       0.0 0.0 0.0 0.0
0003a0 00 00 00 00 00 00 00 00 00 00 00 00 00 00 00 00
       0.0 0.0 0.0 0.0
0003b0 00 00 00 00 00 00 00 00 00 00 00 00 00 00 00 00
       0.0 0.0 0.0 0.0
0003c0 2e 40 f9 be 7c 03 a8 be f8 38 29 be f4 87 27 be
       -0.48681778 -0.32815158 -0.16525638 -0.16360456
0003d0 ee e2 a7 be 28 42 13 bd e7 0a 86 bd 8a 9a f7 bc
       -0.3279032 -0.035951763 -0.06545048 -0.030225057
0003e0 ba 60 0c 3d 32 68 8a 3d 00 00 00 00 00 00 00 00
       0.034271933 0.06758155 0.0 0.0
0003f0 00 00 00 00 00 00 00 00 00 00 00 00 00 00 00 00
       0.0 0.0 0.0 0.0

exp_avg_sq f4 [100, 10]
000000 e9 4b 41 3c ff fa ac 3b a2 96 a7 3a 99 8b a7 3a
       0.011797884 0.0052789445 0.0012785981 0.0012782692
000010 0f 47 ad 3b a2 e4 85 38 2f 39 62 39 1b 81 6a 38
       0.005288012 6.3845204e-05 0.00021574342 5.5910186e-05
000020 55 f3 82 38 33 b1 50 39 99 81 3a 3e 46 a9 a6 3d
       6.244207e-05 0.00019902438 0.182135 0.08137755
000030 c0 34 a2 3c f3 35 a5 3c a9 c5 a7 3d 26 d6 5b 3a
       0.019800544 0.020167327 0.081919976 0.00083860976
000040 a7 d1 62 3b 6c da 6a 3a f4 c5 76 3a c0 36 4d 3b
       0.0034609826 0.0008958939 0.00094136526 0.003131315
000050 00 00 00 00 00 00 00 00 00 00 00 00 00 00 00 00
       0.0 0.0 0.0 0.0
000060 00 00 00 00 00 00 00 00 00 00 00 00 00 00 00 00
       0.0 0.0 0.0 0.0
000070 00 00 00 00 00 00 00 00 af 75 82 3d fd 63 eb 3c
       0.0 0.0 0.063701026 0.028734202
000080 c2 bd e0 3b 2c a5 e4 3b aa 4d ea 3c 7c fa b0 39
       0.0068585584 0.006977698 0.028601486 0.0003375596
000090 f4 d8 99 3a d8 c1 a6 39 0e ec b9 39 dc 30 89 3a
       0.0011737631 0.00031806412 0.00035461824 0.0010466832
0000a0 81 35 5e 3c a3 a6 c6 3b 46 2d bf 3a dc a0 c1 3a
       0.013562561 0.006062345 0.0014585636 0.0014772671
0000b0 5e 1f c8 3b fc 06 a2 38 18 68 84 39 f8 8d 8e 38
       0.006107255 7.726063e-05 0.00025254558 6.7975314e-05
0000c0 cd 7a 9d 38 69 7f 6a 39 00 00 00 00 00 00 00 00
       7.509217e-05 0.00022363443 0.0 0.0
0000d0 00 00 00 00 00 00 00 00 00 00 00 00 00 00 00 00
       0.0 0.0 0.0 0.0
0000e0 00 00 00 00 00 00 00 00 00 00 00 00 00 00 00 00
       0.0 0.0 0.0 0.0
0000f0 00 00 00 00 00 00 00 00 00 00 00 00 00 00 00 00
       0.0 0.0 0.0 0.0
000100 00 00 00 00 00 00 00 00 00 00 00 00 00 00 00 00
       0.0 0.0 0.0 0.0
000110 00 00 00 00 00 00 00 00 00 00 00 00 00 00 00 00
       0.0 0.0 0.0 0.0
000120 00 00 00 00 00 00 00 00 00 00 00 00 00 00 00 00
       0.0 0.0 0.0 0.0
000130 00 00 00 00 00 00 00 00 00 00 00 00 00 00 00 00
       0.0 0.0 0.0 0.0
000140 00 00 00 00 00 00 00 00 00 00 00 00 00 00 00 00
       0.0 0.0 0.0 0.0
000150 00 00 00 00 00 00 00 00 00 00 00 00 00 00 00 00
       0.0 0.0 0.0 0.0
000160 00 00 00 00 00 00 00 00 00 00 00 00 00 00 00 00
       0.0 0.0 0.0 0.0
000170 00 00 00 00 00 00 00 00 00 00 00 00 00 00 00 00
       0.0 0.0 0.0 0.0
000180 00 00 00 00 00 00 00 00 00 00 00 00 00 00 00 00
       0.0 0.0 0.0 0.0
000190 00 00 00 00 00 00 00 00 00 00 00 00 00 00 00 00
       0.0 0.0 0.0 0.0
0001a0 00 00 00 00 00 00 00 00 00 00 00 00 00 00 00 00
       0.0 0.0 0.0 0.0
0001b0 00 00 00 00 00 00 00 00 00 00 00 00 00 00 00 00
       0.0 0.0 0.0 0.0
0001c0 00 00 00 00 00 00 00 00 00 00 00 00 00 00 00 00
       0.0 0.0 0.0 0.0
0001d0 00 00 00 00 00 00 00 00 00 00 00 00 00 00 00 00
       0.0 0.0 0.0 0.0
0001e0 00 00 00 00 00 00 00 00 00 00 00 00 00 00 00 00
       0.0 0.0 0.0 0.0
0001f0 00 00 00 00 00 00 00 00 00 00 00 00 00 00 00 00
       0.0 0.0 0.0 0.0
000200 00 00 00 00 00 00 00 00 4a 70 ef 3c c4 cb 53 3c
       0.0 0.0 0.029228348 0.0129269995
000210 11 60 54 3b 7c 9c 54 3b 9d 65 56 3c c7 21 03 39
       0.0032405893 0.0032441905 0.01308575 0.00012505717
000220 4e f0 0d 3a 81 5d 0c 39 e0 67 0b 39 79 85 0c 3a
       0.00054145313 0.00013386273 0.0001329477 0.0005360465
000230 32 60 9b 3e b4 47 0b 3e 79 e7 07 3d 39 2c 0a 3d
       0.3034683 0.13601571 0.033179734 0.03373358
000240 9b f5 0b 3e 87 78 b4 3a 5a 51 bb 3b 64 b1 bf 3a
       0.1366791 0.001376883 0.005716485 0.001462501
000250 c5 ea c6 3a 6d 18 b0 3b 94 25 04 3e 93 c3 6d 3d
       0.0015176168 0.0053740055 0.1290496 0.058047842
000260 67 83 64 3c 3d 05 64 3c fc 28 6c 3d 90 15 35 3a
       0.013947344 0.0139172645 0.057656273 0.0006907815
000270 46 28 1b 3b 54 1b 1f 3a 0a 9b 34 3a c4 35 09 3b
       0.0023675128 0.0006069441 0.00068895577 0.0020936588
000280 e5 48 a0 3d 97 38 10 3d 91 2f 0a 3c 33 d9 09 3c
       0.078264035 0.03521022 0.008434192 0.008413601
000290 91 ec 0e 3d 2b be e2 39 03 6d ba 3a a1 81 c1 39
       0.034893576 0.00043247765 0.0014223162 0.0003690841
0002a0 80 3e df 39 5c ed a2 3a 00 00 00 00 00 00 00 00
       0.0004258044 0.0012430358 0.0 0.0
0002b0 00 00 00 00 00 00 00 00 00 00 00 00 00 00 00 00
       0.0 0.0 0.0 0.0
0002c0 00 00 00 00 00 00 00 00 00 00 00 00 00 00 00 00
       0.0 0.0 0.0 0.0
0002d0 97 fc 9f 3d a4 47 0f 3d 44 c1 0c 3c 1c b9 0f 3c
       0.078118496 0.03498043 0.008591 0.008772161
0002e0 e8 40 10 3d f5 84 ad 39 90 2d c6 3a 0c a6 c5 39
       0.03521815 0.00033096192 0.001511978 0.00037698483
0002f0 ae bf ca 39 2c 9c b4 3a b3 6f fa 3c 40 ec 60 3c
       0.00038671255 0.0013779453 0.03057084 0.013728201
000300 8f c8 5a 3b 29 bf 5a 3b 6f e6 5f 3c 54 f8 1c 39
       0.0033383702 0.00333781 0.0136657795 0.00014969829
000310 9d b0 15 3a 5d c3 13 39 d5 3b 23 39 f9 88 06 3a
       0.00057102164 0.00014091791 0.0001556718 0.0005132105
000320 00 00 00 00 00 00 00 00 00 00 00 00 00 00 00 00
       0.0 0.0 0.0 0.0
000330 00 00 00 00 00 00 00 00 00 00 00 00 00 00 00 00
       0.0 0.0 0.0 0.0
000340 00 00 00 00 00 00 00 00 00 00 00 00 00 00 00 00
       0.0 0.0 0.0 0.0
000350 00 00 00 00 00 00 00 00 00 00 00 00 00 00 00 00
       0.0 0.0 0.0 0.0
000360 00 00 00 00 00 00 00 00 00 00 00 00 00 00 00 00
       0.0 0.0 0.0 0.0
000370 00 00 00 00 00 00 00 00 00 00 00 00 00 00 00 00
       0.0 0.0 0.0 0.0
000380 00 00 00 00 00 00 00 00 00 00 00 00 00 00 00 00
       0.0 0.0 0.0 0.0
000390 00 00 00 00 00 00 00 00 00 00 00 00 00 00 00 00
       0.0 0.0 0.0 0.0
0003a0 00 00 00 00 00 00 00 00 00 00 00 00 00 00 00 00
       0.0 0.0 0.0 0.0
0003b0 00 00 00 00 00 00 00 00 00 00 00 00 00 00 00 00
       0.0 0.0 0.0 0.0
0003c0 da 34 bf 3c 7e e0 2b 3c 4f 38 27 3b 3c 5a 28 3b
       0.023340631 0.010490535 0.002551574 0.002568855
0003d0 3a 84 2b 3c 1c 34 f0 38 de 3d dd 39 33 52 e4 38
       0.010468537 0.00011453798 0.000421985 0.00010887198
0003e0 e8 67 f6 38 44 fe d8 39 00 00 00 00 00 00 00 00
       0.00011749548 0.00041388173 0.0 0.0
0003f0 00 00 00 00 00 00 00 00 00 00 00 00 00 00 00 00
       0.0 0.0 0.0 0.0

exp_avg f4 [100]
000000 ee 02 da 3c 9e 4f 02 c0 00 00 00 00 d8 65 97 bf
       0.026612725 -2.0361094 0.0 -1.1827955
000010 fa f1 fe 3e 00 00 00 00 00 00 00 00 00 00 00 00
       0.49793988 0.0 0.0 0.0
000020 00 00 00 00 00 00 00 00 00 00 00 00 00 00 00 00
       0.0 0.0 0.0 0.0
000030 00 00 00 00 de d5 f3 be 35 7e 26 c0 8e 50 90 3f
       0.0 -0.47624105 -2.601453 1.1274583
000040 20 98 1f 3f 00 00 00 00 32 24 ad bf 5e 2a f9 3d
       0.623415 0.0 -1.3526671 0.12166284
000050 00 00 00 00 00 00 00 00 00 00 00 00 00 00 00 00
       0.0 0.0 0.0 0.0
000060 9e 10 27 bf 00 00 00 00 96 d5 14 bf 87 04 ff bf
       -0.6525973 0.0 -0.58138406 -1.9923257
000070 00 00 00 00 00 00 00 00 00 00 00 00 6e c7 c1 bf
       0.0 0.0 0.0 -1.5138986
000080 00 00 00 00 00 00 00 00 00 00 00 00 af e0 db bf
       0.0 0.0 0.0 -1.7177943
000090 00 00 00 00 00 00 00 00 3e 6b 93 bf 00 00 00 00
       0.0 0.0 -1.1517103 0.0
0000a0 00 00 00 00 c8 9e 05 bf 39 58 28 3f cc 73 d0 bf
       0.0 -0.52195406 0.6575962 -1.6285338
0000b0 13 ef 8d bf 00 00 00 00 2f 74 87 3f cd 0e c9 3f
       -1.1088585 0.0 1.0582331 1.5707642
0000c0 00 00 00 00 1d 86 e6 be 47 52 de 3f 00 00 00 00
       0.0 -0.45024195 1.7368859 0.0
0000d0 5f ba e5 3e 00 00 00 00 f2 f4 bd 3f 00 00 00 00
       0.44868752 0.0 1.4840376 0.0
0000e0 76 2a 0b 3f 00 00 00 00 18 d7 58 bf 00 00 00 00
       0.54361665 0.0 -0.84703207 0.0
0000f0 00 00 00 00 ee 96 14 bf 80 4f 3a 3f 90 86 40 be
       0.0 -0.580428 0.7277756 -0.18801332
000100 00 00 00 00 2a 65 dd be 00 00 00 00 10 5d 2e be
       0.0 -0.43241245 0.0 -0.17027688
000110 f5 d3 89 bf 22 87 4a 3f d1 59 a6 3e 13 72 9c bf
       -1.0767809 0.79112446 0.324904 -1.2222313
000120 d6 8b 51 bf 77 3c a0 be 96 93 7a bf 6e b5 f9 be
       -0.81854 -0.3129613 -0.9788145 -0.48771232
000130 00 00 00 00 90 05 50 bf 00 00 00 00 00 00 00 00
       0.0 -0.8125849 0.0 0.0
000140 00 00 00 00 00 00 00 00 00 00 00 00 00 00 00 00
       0.0 0.0 0.0 0.0
000150 00 00 00 00 80 a4 66 bf 42 7a e1 bf 3f ea 9b 3f
       0.0 -0.9009476 -1.7615435 1.2180861
000160 6c df 7d bf 00 00 00 00 ee eb af be 51 aa 6d bf
       -0.9916904 0.0 -0.34359688 -0.9283801
000170 00 00 00 00 2a 91 15 bf 00 00 00 00 00 00 00 00
       0.0 -0.5842463 0.0 0.0
000180 00 00 00 00 c9 a3 e5 3f 73 49 11 bf eb 5f da 3f
       0.0 1.7940608 -0.567527 1.7060522

exp_avg_sq f4 [100]
000000 6e e6 aa 3c ce 8d a4 3e 00 00 00 00 a1 b9 e6 3d
       0.02086183 0.32139438 0.0 0.11265875
000010 aa f3 c3 3c 00 00 00 00 00 00 00 00 00 00 00 00
       0.023919899 0.0 0.0 0.0
000020 00 00 00 00 00 00 00 00 00 00 00 00 00 00 00 00
       0.0 0.0 0.0 0.0
000030 00 00 00 00 d3 9f 53 3d a5 84 09 3f 36 fb 68 3e
       0.0 0.051666092 0.53718024 0.2275208
000040 4b 59 0d 3e 00 00 00 00 99 98 0d 3e db 06 5d 3d
       0.13803594 0.0 0.13827743 0.053961616
000050 00 00 00 00 00 00 00 00 00 00 00 00 00 00 00 00
       0.0 0.0 0.0 0.0
000060 f5 99 29 3d 00 00 00 00 be 53 d9 3c 7c 08 cf 3e
       0.04140659 0.0 0.02652919 0.4043616
000070 00 00 00 00 00 00 00 00 00 00 00 00 b2 75 3f 3e
       0.0 0.0 0.0 0.18697241
000080 00 00 00 00 00 00 00 00 00 00 00 00 5e 89 4c 3e
       0.0 0.0 0.0 0.19974276
000090 00 00 00 00 00 00 00 00 d5 fb 53 3e 00 00 00 00
       0.0 0.0 0.20701535 0.0
0000a0 00 00 00 00 d7 06 09 3d 2f 26 c9 3d 88 12 49 3e
       0.0 0.03345379 0.09821736 0.19635975
0000b0 6c d6 bc 3d 00 00 00 00 5a 3c 8f 3e 60 dc 03 3f
       0.09220585 0.0 0.27975732 0.5150814
0000c0 00 00 00 00 28 27 95 3c cb f7 0d 3f 00 00 00 00
       0.0 0.018207148 0.5545623 0.0
0000d0 73 bc 54 3d 00 00 00 00 ca 29 ba 3e 00 00 00 00
       0.05193753 0.0 0.36360008 0.0
0000e0 e3 58 e7 3d 00 00 00 00 bc 55 14 3d 00 00 00 00
       0.11296251 0.0 0.036214575 0.0
0000f0 00 00 00 00 c7 43 19 3d 12 06 60 3d 12 34 cc 3c
       0.0 0.037418153 0.05469329 0.024927173
000100 00 00 00 00 e3 1f 07 3d 00 00 00 00 9d 27 71 3c
       0.0 0.032989394 0.0 0.014718917
000110 56 55 50 3d 51 86 04 3e fd 3c 18 3e b7 b3 c9 3d
       0.050862633 0.12941863 0.14867015 0.09848731
000120 f2 66 88 3d 6a e2 50 3c db 56 86 3d 98 e8 f0 3c
       0.0666026 0.012749294 0.06559535 0.029407784
000130 00 00 00 00 92 7d 2b 3d 00 00 00 00 00 00 00 00
       0.0 0.0418678 0.0 0.0
000140 00 00 00 00 00 00 00 00 00 00 00 00 00 00 00 00
       0.0 0.0 0.0 0.0
000150 00 00 00 00 a5 92 c1 3d 65 b3 c0 3e 92 37 3e 3e
       0.0 0.09451798 0.37636867 0.18575886
000160 e4 0e b1 3d 00 00 00 00 ee 0d 99 3c 41 1c a0 3d
       0.08645418 0.0 0.0186834 0.07817889
000170 00 00 00 00 dd 42 90 3d 00 00 00 00 00 00 00 00
       0.0 0.07044003 0.0 0.0
000180 00 00 00 00 63 38 d0 3e 31 85 8f 3d a5 e0 03 3f
       0.0 0.4066802 0.07007826 0.51514655
