src/Policy_Gradient/Progress_Checkpoint/Trained_Model.pth (torch, 173538 bytes, 22 tensors)

layers.0.weight f4 [100, 12]
000000 14 9f 62 3e 94 01 76 3e 53 66 89 bd 2d 3b 88 3e
       0.22130996 0.2402404 -0.0670897 0.26607648
000010 f9 4a 80 bd a7 ff 70 3d d9 b9 0d be aa 9b 2e 3e
       -0.062643 0.05883756 -0.13840427 0.17051569
000020 6b fe 81 3e 66 33 54 be c6 40 7f 3e fd c5 58 3d
       0.25389418 -0.20722732 0.24927053 0.05292319
000030 4b a9 58 3e ca ae 19 3d b7 10 0d 3e 1e 3b 2f bd
       0.2115833 0.037520207 0.13775907 -0.042780988
000040 94 36 62 3e 24 9f 27 3d 40 dd 0a be 1e 02 94 3d
       0.22091132 0.040923253 -0.13560963 0.07226966
000050 39 88 0b be 3e f9 10 bd ec ce eb bd 42 4c 43 3e
       -0.13626184 -0.035393946 -0.115140766 0.19072059
000060 28 57 69 be b5 46 08 be 1c f1 a6 bd f7 bc 31 be
       -0.22787154 -0.13308223 -0.08151457 -0.1735724
000070 20 33 df 3c 0a fb 91 be 24 7b 85 3e 0b 1b 7b be
       0.027246058 -0.2851184 0.2607051 -0.24522035
000080 c0 36 64 3e b8 c6 44 3d ac f7 bf bd 06 ab 36 3e
       0.2228651 0.048041075 -0.093734115 0.17838678
000090 34 07 37 3d be 9f 6e 3e 69 11 00 3d 2f 02 bb bd
       0.044684604 0.23303124 0.031266604 -0.09131276
0000a0 2a 7f 9e 3d a5 ea a0 bd f9 32 f7 3d f2 cd 83 3e
       0.07739098 -0.07857255 0.12070269 0.2574306
0000b0 c5 ad 29 3e e1 52 03 be 69 ba 2a 3e e1 cc 48 3d
       0.16570194 -0.12824585 0.16672672 0.049023513
0000c0 24 1e 16 3e f6 2b 34 be 64 4f 92 be 3e 6b e4 bd
       0.14659935 -0.17594895 -0.28576195 -0.11153267
0000d0 09 bc 62 be d4 8d 72 3e 3c 49 aa 3d c4 e2 f4 3d
       -0.22142042 0.23686916 0.083147496 0.119573146
0000e0 c8 f9 ba 3d c0 8d a4 bb 74 57 67 3e ba 07 52 be
       0.09129673 -0.0050217807 0.22591954 -0.2051076
0000f0 f0 e5 94 3c db c2 49 be bc 4c b6 3d e2 99 cb bd
       0.018176049 -0.19703238 0.08901355 -0.0994146
000100 c4 27 b5 3d 84 58 76 bd c8 2b 75 3e 64 34 2f be
       0.08845475 -0.06014301 0.23942482 -0.17109829
000110 18 4c 30 be d1 4e 30 be 6c f0 84 3e 30 05 c5 3d
       -0.17216527 -0.17217566 0.25964677 0.0962013
000120 21 6a 8f 3e be 7a 71 be 02 7e 91 be ca ab 64 be
       0.28010657 -0.23581979 -0.2841645 -0.22331157
000130 fe 8e 44 be 71 3d f4 3d 4f 12 db 3d 90 e4 78 3e
       -0.19195172 0.119257815 0.106968515 0.2430594
000140 d8 17 18 be cb 7e 4a be 59 a6 19 3e bf c3 f0 bd
       -0.14852846 -0.1977493 0.15004863 -0.117560856
000150 38 4a 33 3e 4d 47 8c bd 11 09 29 3e 1e ce 65 be
       0.17508781 -0.06849537 0.16507365 -0.22441909
000160 ab 35 15 be e0 05 b4 3d 18 41 82 3d 2d fc 91 bd
       -0.14571254 0.08790183 0.06360072 -0.07128177
000170 87 f1 2e 3e a3 1b 47 3e de 5e 56 be 4f 9a 1d be
       0.17084323 0.19444136 -0.20934626 -0.15390895
000180 11 10 88 3e 3a 9d c4 bd 85 c3 ce bd 86 3c 8e be
       0.26574758 -0.09600301 -0.10095886 -0.2778055
000190 4a c7 27 be 88 8e 96 3d c7 83 1a bd 72 82 55 be
       -0.16384616 0.073514044 -0.03772333 -0.20850542
0001a0 04 1f 12 3c 6c a2 4b be a1 0e 7c be c6 06 25 be
       0.0089185275 -0.19886178 -0.24614955 -0.16115865
0001b0 99 5b 81 be ce 38 3c be 6e be 93 3e 08 54 5f 3d
       -0.25265196 -0.18381044 0.28856224 0.054523498
0001c0 a4 2f b6 3d 30 da 89 be 00 25 42 be 5e c9 c4 bd
       0.088958055 -0.26924276 -0.18959427 -0.0960872
0001d0 30 e5 38 3d c8 0d 82 be 2a bc fe bd eb f7 30 be
       0.045140445 -0.2540114 -0.12438233 -0.17282073
0001e0 00 b6 51 3a 6a fd db bd 60 df a3 bc 42 4f 48 be
       0.00079998374 -0.10741694 -0.020003974 -0.19561484
0001f0 94 e6 4a be 9c 74 2c be 58 5e ca bd 66 50 69 be
       -0.19814521 -0.16841358 -0.09881276 -0.22784576
000200 c0 da 77 3e a0 aa 6a bd 0c 56 7e 3e 9c 35 b8 3d
       0.2420454 -0.057291627 0.24837512 0.089946
000210 e6 50 7a be 62 91 4c 3e de aa a2 bd fa 9f e2 bd
       -0.24444923 0.19977334 -0.079427466 -0.11065669
000220 22 5f 75 be 48 f0 92 be 88 26 a9 3d 3e 25 81 bd
       -0.23962072 -0.28698945 0.082593024 -0.063059315
000230 a0 2b e6 3d 42 97 72 be ec 76 5b 3e 1e fd 58 be
       0.112387896 -0.23690513 0.21432084 -0.21190307
000240 9a 4a 5c bd 4e 69 66 3d 44 64 14 3e 9d c5 6a 3e
       -0.053782083 0.05625277 0.14491373 0.22926946
000250 d5 97 84 3e 3c 71 6e be 02 e9 89 3d fc b3 03 be
       0.2589709 -0.23285383 0.06733896 -0.12861627
000260 7b 41 0d bd b9 38 59 be 98 a1 88 3e 91 ac 55 be
       -0.034486275 -0.21213044 0.26685786 -0.2086661
000270 af 57 20 3e 7d c7 d4 3d 01 e8 c4 3d 45 85 1d be
       0.15658449 0.10389612 0.09614564 -0.1538287
000280 33 97 87 3e d2 a2 86 3d e9 61 1b 3d b3 ec 80 be
       0.26482543 0.06574024 0.03793517 -0.25180587
000290 03 d3 f4 3d f6 6d 3b bd 10 e2 08 be ec cc 7b 3e
       0.1195431 -0.045759164 -0.13367486 0.2458989
0002a0 10 cf 83 3d e4 8c 23 be c9 9d 15 be 40 de 61 bc
       0.064359784 -0.15971714 -0.14610972 -0.013785899
0002b0 b0 0d 25 3e c4 12 97 bd f1 a9 28 be 5a 74 ca bd
       0.16118503 -0.07376626 -0.16471078 -0.098854735
0002c0 7b d6 5c be f0 d7 d2 3d 14 cf 64 3e 7e 25 8b be
       -0.21566193 0.10295093 0.22344619 -0.27177042
0002d0 d8 e7 8e 3d 73 a0 1b 3e 84 9b 61 3d c7 d0 cc bd
       0.069778144 0.15197925 0.055079952 -0.100007586
0002e0 13 36 1d 3e 70 29 1e 3e 18 74 e2 3d 4d d1 43 bd
       0.15352659 0.15445495 0.110572994 -0.047807027
0002f0 a8 6f 98 bd ce f1 e5 3c ea 1e 5d bd 43 65 b6 bd
       -0.07443172 0.028069403 -0.05398456 -0.08906033
000300 ba 67 3d 3e bb 5f 7e 3e e7 45 e7 bc 7f 33 83 bd
       0.184966 0.24841206 -0.028231574 -0.064063065
000310 54 0a 96 3b 9c 4b 89 bc af fd 8f 3d 21 ee a5 3d
       0.004578868 -0.016759686 0.07030808 0.0810206
000320 af 8f 85 be c4 4d d5 bd aa f7 77 3e 3a ae e6 3d
       -0.26086184 -0.10415223 0.2421557 0.112637
000330 e0 3d 6b bc 90 38 32 be 04 da 34 be 55 65 84 be
       -0.014358014 -0.1740439 -0.17661291 -0.2585856
000340 0e b6 c0 bd 28 a7 c7 3d ac 7b 3c 3e b2 7a 08 3e
       -0.09409724 0.097486794 0.18406552 0.13328055
000350 fe a5 82 be c6 c3 31 be c0 9a 3a bd d2 f9 8e 3e
       -0.25517267 -0.17359838 -0.045557737 0.27924973
000360 6a 87 1f 3d e0 97 9e bd 95 83 ee 3d d5 c3 e6 bd
       0.0389475 -0.077438116 0.11646191 -0.11267821
000370 ae 62 42 be 4f da 54 3e e4 a8 07 be 98 d6 72 bd
       -0.18982956 0.20786403 -0.1324802 -0.059286684
000380 ed e2 94 be d0 41 49 3e a6 87 62 3e 8c de e0 3d
       -0.2907938 0.19654012 0.22122058 0.109799474
000390 d8 1d 4e be 12 df 91 be 33 15 70 be 74 6e 5c 3e
       -0.20128572 -0.28490502 -0.23445587 0.2152651
0003a0 be eb 0d 3e 64 c0 78 3e 90 db 1a 3e 38 a1 95 3d
       0.1385946 0.24292141 0.15122819 0.07306141
0003b0 80 43 39 bb e1 ce 60 be c4 43 7d be 00 3f 8a be
       -0.0028268993 -0.21953918 -0.24732882 -0.2700119
0003c0 7c 04 f2 3d bc 21 11 be b8 f6 6d bd 0c 1f 2a be
       0.118172616 -0.14173025 -0.058096617 -0.16613406
0003d0 ac 76 57 bd 52 0e 50 be e0 26 41 be 10 1c c4 3d
       -0.05260341 -0.20317963 -0.18862486 0.09575665
0003e0 5a b4 af bd 1c 7d 36 3e 0e aa bd bd 4c d8 58 be
       -0.08579321 0.17821163 -0.09260951 -0.2117626
0003f0 ac 9f 50 bd ff 4a 0f be ec df b4 bd e0 b4 8c be
       -0.050933525 -0.13993452 -0.08831772 -0.27481747

layers.0.bias f4 [100]
000000 39 c1 14 be e8 7c bf bd a4 dd d5 bd db d7 90 3e
       -0.14526834 -0.09349996 -0.10442665 0.28289685
000010 44 1e db bd fa a6 53 be c6 74 fa 3d 14 8a 89 bc
       -0.10699132 -0.20669165 0.12229304 -0.016789474
000020 14 c8 63 3e de b3 38 3e 26 ca 87 3e e8 7c 58 be
       0.22244292 0.18037364 0.26521415 -0.21141398
000030 e3 00 3a 3e 03 6f 7a 3e 6e fa 11 be d2 44 89 3e
       0.18164401 0.2445641 -0.14255688 0.26810318
000040 ab 16 5e 3e 80 2e 4f 3b bb a1 0b 3e d6 b2 ce bd
       0.21688335 0.003161341 0.13635914 -0.10092704
000050 04 e9 80 be fc 71 95 3d 8b b0 ad 3d b8 31 41 be
       -0.25177777 0.072971314 0.084809385 -0.18866622
000060 16 5e 0f 3e d5 82 7c be 29 9f 7d 3e 34 21 8f 3e
       0.14000735 -0.24659283 0.24767746 0.2795502
000070 04 f6 a0 3d 98 2c 37 be 94 dc 0f 3e 78 80 49 3d
       0.07859424 -0.17888105 0.14048988 0.049194783
000080 0e d5 a6 3d ef 70 bf 3d cf 87 61 3e 32 1f fe bd
       0.08146106 0.09347712 0.22024463 -0.12408294
000090 30 fd 84 bd 1c 65 a0 3d 7e 02 02 3d ed 68 6c 3e
       -0.06493604 0.07831785 0.031740658 0.23086901
0000a0 23 43 1b be 17 15 4e bc e1 c6 67 3d 58 4f 9c bd
       -0.1516233 -0.01257827 0.05658615 -0.07632321
0000b0 1e f4 4e 3e 48 ea e9 3c 4d 9a 88 be 08 19 00 bd
       0.20210311 0.028554097 -0.26680222 -0.03127387
0000c0 ac 12 06 be 96 bd da 3c 50 6a 09 bd 0a 9c 92 be
       -0.1309306 0.02670173 -0.033548653 -0.28634673
0000d0 38 77 57 bd 60 80 e2 bc 2d e6 b9 bd 6d 7c 85 3e
       -0.05260393 -0.027649105 -0.09077106 0.26071492
0000e0 1f f3 81 bd 92 e6 3d 3e 6c f7 92 3d 50 87 79 be
       -0.063452 0.18544987 0.07176098 -0.24368024
0000f0 f8 56 86 3d 1c fa 74 3e b6 5a 41 be 12 12 3f be
       0.06559557 0.23923534 -0.1888226 -0.18659237
000100 70 ff 90 3e 2c 85 6d 3e 53 ea 24 be a5 06 32 3e
       0.28319883 0.23195332 -0.16105013 0.17385347
000110 74 43 0f bd d5 b8 91 be 70 ad b1 3c d9 40 ba 3d
       -0.034976438 -0.28461328 0.021689147 0.090944
000120 c0 56 b1 bd a5 61 d3 3d 4a c5 7c be ba df 50 3e
       -0.086591244 0.103213586 -0.24684635 0.20397845
000130 ce e0 7b 3e a9 36 22 3e a8 68 48 3d 68 6b bd 3d
       0.24597475 0.15841164 0.048927933 0.09249002
000140 16 e2 55 be 31 cf 91 bd a0 c3 e1 bc c9 7f 24 be
       -0.20887026 -0.07119597 -0.027559102 -0.16064371
000150 ab 56 5a be f8 d3 46 3e 4d 10 4a 3e 53 3b 86 be
       -0.21322124 0.19416797 0.19732781 -0.26217136
000160 08 21 bc 3d 2f d9 f3 3d cd 60 8b 3e 90 7e 2d 3e
       0.09185988 0.11906659 0.2722229 0.16942811
000170 49 e6 88 3e 14 8e c1 bd 4b c3 4e 3e 00 1a 78 3e
       0.26738194 -0.094509274 0.20191686 0.24228668
000180 c9 9a 8b be 64 48 6d be c0 73 7f 3d 2d 25 24 3e
       -0.2726653 -0.23172146 0.062366247 0.16029806

layers.2.weight f4 [100, 100]
000000 81 b7 4c bd 59 fe 2d 3c 00 3a 18 b9 4a 2c cb 3c
       -0.04997969 0.010619723 -0.00014517456 0.024801392
000010 30 19 5c bd c6 07 67 3d 25 97 86 3d ab b8 89 bd
       -0.05373496 0.056403898 0.06571797 -0.06724676
000020 55 56 48 3b 00 78 91 39 6e 87 03 3d db c9 be 3d
       0.0030569036 0.00027745962 0.032111578 0.093158446
000030 1b 74 ef 3c 9f e4 bb bc 09 f0 b7 3d db 0b 1d bd
       0.029230168 -0.022936163 0.0898133 -0.038341384
000040 10 71 f2 bc 80 b9 df 3b c2 1a 9d bd 50 49 32 3c
       -0.029594928 0.0068275332 -0.07671119 0.010881737
000050 a8 f3 8a bd 18 76 28 3c bc 9b 1b 3c d8 c9 62 3c
       -0.06784755 0.010282062 0.009497579 0.013842069
000060 fa b4 ac bd 0d 84 c2 bd 33 c4 3a 3d b9 a2 af 3d
       -0.08432956 -0.09497843 0.045597266 0.08575959
000070 df bb b5 bd 48 fc 2b 3d f8 c1 96 bd 50 6d cd 3b
       -0.08873724 0.04198864 -0.07361215 0.0062691346
000080 ea 49 c3 3d 1a 06 9f 3d 1a ee 91 bd f6 5d 7d 3d
       0.09535582 0.07764836 -0.071254924 0.061857186
000090 ee f0 55 3d 02 2f 25 3b 8e 5e ca 3d f7 f2 23 bd
       0.05223172 0.002520502 0.09881316 -0.04002663
0000a0 0c a4 be bc 6c d6 4f bd 28 df 89 3c 75 f7 d5 3c
       -0.023271583 -0.050741598 0.016830042 0.026118973
0000b0 33 ac f3 3b de 25 69 bd 60 63 38 bd 92 53 0b 3d
       0.007436299 -0.05692088 -0.045016646 0.034015246
0000c0 f5 92 b3 bd f4 c9 46 bc 40 2c 11 bb 83 f4 25 bd
       -0.08768264 -0.01213311 -0.002215162 -0.040516388
0000d0 92 0f 15 3d b0 33 d3 3b 68 02 87 3d 5c 14 13 bc
       0.036391802 0.0064453706 0.06592256 -0.008977022
0000e0 34 57 78 bd a9 b3 90 3d 34 f1 82 3c 0c 9e ea bc
       -0.06063004 0.070655175 0.015984155 -0.028639816
0000f0 c9 7a 87 bd ec 02 c0 3c 1a 54 c3 bd 54 c2 d7 3c
       -0.06615216 0.023438893 -0.095375255 0.02633778
000100 ca 3f 48 3d 92 a6 b3 bd b0 13 86 bd 02 97 89 bd
       0.04888896 -0.08772005 -0.06546724 -0.067182556
000110 dc 20 b0 3d cf 1a ae 3d 60 21 cd 3b 99 ce be 3d
       0.086000174 0.08501207 0.006260082 0.09316749
000120 50 ee 08 bd 20 89 c7 bd 3a 12 0f 3d f4 01 10 3d
       -0.033430398 -0.097429514 0.03492949 0.035158113
000130 08 11 c8 3d ed 18 ad b9 3b f5 9c 3d 0c bc 79 3d
       0.097688735 -0.00033015703 0.076639615 0.06097035
000140 55 3a 94 3d 96 99 cf bd e9 a4 a8 3d 15 95 ae bd
       0.072376885 -0.10136716 0.08234579 -0.08524529
000150 01 9b b7 3d e0 ca 87 bb b0 09 ac bd 44 d0 e3 3c
       0.089651115 -0.0041440576 -0.08400285 0.02780927
000160 d8 be a6 bc 75 86 b8 bd ed 88 18 bd f4 d1 17 3c
       -0.020354673 -0.09010021 -0.037239958 0.009266365
000170 e7 76 a3 3d ac d8 fb bc 3d ea 7b 3d d7 db 75 3c
       0.07981663 -0.030742966 0.061502684 0.015006027
000180 c7 7a 33 3b f4 bf 9c 3c a8 43 82 bd 73 9a a5 bd
       0.0027386413 0.0191345 -0.06360561 -0.080860995
000190 9d 85 0b bd 6c 76 c4 bd 67 04 3f bd 92 f8 01 3b
       -0.03406297 -0.095929 -0.046635058 0.0019831997
0001a0 18 e2 86 bd 83 e6 29 bd 72 97 a8 bc 53 69 65 bc
       -0.06586093 -0.0414796 -0.020580027 -0.014002162
0001b0 59 81 6d bd 20 74 9d 3b 70 f7 65 bc a4 49 ea 3c
       -0.057984684 0.004805103 -0.0140360445 0.028599568
0001c0 fd 21 dc 3a ec b4 57 bd ca 04 0d bd 45 66 7e bb
       0.0016794797 -0.052662775 -0.034428395 -0.0038818282
0001d0 ba 49 85 bd 18 43 00 3c a5 3f 1f bc 82 ea 1e 3d
       -0.06508203 0.007828496 -0.009719764 0.038797863
0001e0 68 e0 c1 3c d9 44 99 3d 6d da a8 bb ea 53 97 bd
       0.023666576 0.07483835 -0.0051529915 -0.07389052
0001f0 4a 18 37 3d 5e 69 8a bd 70 e3 86 bc 2c a1 04 bd
       0.0447009 -0.067583784 -0.016465873 -0.032380268
000200 a3 6b 1b bd 0b c6 27 bd e7 31 bc 3d 72 7a 6a 3d
       -0.037944447 -0.040960353 0.091892056 0.05724568
000210 92 d8 cb 3c 72 ea b9 3d 85 3e bf bd 38 31 84 3c
       0.024883542 0.0907792 -0.093380965 0.01613675
000220 af 1b 83 3d ed 64 82 3d 67 de a8 bd c1 c0 06 3d
       0.064017646 0.06366906 -0.08245545 0.03289867
000230 e7 57 69 bd 8e 59 da bb 93 07 c3 bc c9 73 b0 bd
       -0.056968596 -0.006663508 -0.023807323 -0.08615834
000240 f4 d5 c8 bd 84 93 8b bd 4a dd 39 3d 96 5d 3b 3d
       -0.09806433 -0.06815246 0.045377053 0.045743547
000250 ab 20 b2 bd c6 96 20 bd 40 19 d6 3a 07 11 b1 bd
       -0.08697637 -0.03920629 0.0016334429 -0.08645826
000260 7e ca 66 3d 77 7e b9 3d f8 d5 91 3c 12 4d 9d bd
       0.056345455 0.090573244 0.017802224 -0.076807156
000270 a3 49 aa 3c be b0 14 3d cf 92 9c 3d 93 ef 59 bd
       0.020787066 0.036301367 0.07645189 -0.05320699
000280 1c 65 bd bd 42 f5 33 3d 60 00 cc 3b 60 75 05 bd
       -0.09247801 0.043935068 0.0062256306 -0.03258264
000290 cb 53 36 bd 3d 32 53 bd f5 c8 a5 3d 03 23 a6 bc
       -0.044513505 -0.051561583 0.0809497 -0.020280367
0002a0 57 02 8e 3d 8d d0 b6 3d d0 8b 4f 3c 9c bf 98 3c
       0.0693404 0.08926497 0.012667611 0.018646054
0002b0 60 2a df bb 38 44 87 3d f5 8a b8 bd 63 d7 17 3d
       -0.0068104714 0.066048086 -0.09010879 0.037070643
0002c0 01 79 9b bc 21 36 30 3d 00 85 e9 b9 5b 32 25 bd
       -0.018978598 0.04302037 -0.00044540316 -0.040331226
0002d0 80 dd 30 bc 3e fa 53 3d 5e 3d 8e bd 34 74 81 bd
       -0.010794997 0.05175232 -0.069452986 -0.06320992
0002e0 74 7f b7 bc 6c 92 14 bd d7 14 1a 3d 01 d3 89 3d
       -0.022399642 -0.03627245 0.03761753 0.06729699
0002f0 68 78 2f bc d9 1e bc 3d 1d c0 35 bd 1c 43 70 bd
       -0.010709859 0.09185571 -0.044372667 -0.05865775
000300 7b 69 42 bd fe 19 8d bd cd 4d 94 bd 9a 03 bc bd
       -0.047463875 -0.06889723 -0.07241402 -0.091803744
000310 e9 9e ba bd 64 cf d5 3c 4d 33 6e 3d aa 51 ba 3d
       -0.09112341 0.026099868 0.058154393 0.090976074
000320 8f a1 9f 3d 93 11 55 bc 88 f6 9e 3c fd 6c 89 bd
       0.07794487 -0.013004678 0.019404665 -0.06710241
000330 ae 51 1e 3d e3 5e c4 bd b6 4f 23 3d 23 39 34 3c
       0.038652115 -0.09588411 0.03987094 0.010999951
000340 ad 83 c0 3c 72 f9 15 3d a0 0c 3c bd 7d bd af 3d
       0.023500288 0.036614843 -0.045910478 0.08581064
000350 5b b6 25 3d 34 5c 6f 3d c0 65 58 3c 6f 8c 63 3d
       0.04045711 0.05843754 0.013207853 0.05555385
000360 13 df 75 3d 22 a5 39 3d 35 f3 8c 3d b4 95 94 bc
       0.060027193 0.0453235 0.068823256 -0.01813779
000370 d5 a9 86 3d 34 be bc 3c 76 7e 57 3d 93 79 c7 3d
       0.06575362 0.023039915 0.052610837 0.09739985
000380 4c 7f b9 3c ac 07 18 bd 16 00 8d bc cc a0 e6 3c
       0.022643708 -0.03711669 -0.017211955 0.028152846
000390 ec 1f 8a 3c 44 af 01 bd ef 76 a0 3d 36 17 76 3d
       0.016860925 -0.031661287 0.07835185 0.06008073
0003a0 ca ce 8d bd 19 c0 7a bc 8b c0 89 bc be 5a 80 bd
       -0.069242075 -0.015304589 -0.016815444 -0.06267308
0003b0 00 f8 6e 3c e1 3a 1b bd dd f0 70 bd fe 63 21 bd
       0.014585495 -0.03789795 -0.058823455 -0.039402
0003c0 d4 0a 12 bd 2e 0f b5 3d 96 9c ff 3c b6 80 ba 3d
       -0.035654858 0.08840786 0.031202596 0.09106581
0003d0 bf 1d a5 3c 67 6e 7c 3c 4a 62 28 3d f4 99 8c 3c
       0.020155786 0.015407181 0.04110936 0.017163254
0003e0 a0 b8 a0 bd 7d 32 88 bd 80 79 c6 bc 40 0b c5 3a
       -0.078477144 -0.06650255 -0.024227858 0.001503326
0003f0 62 4d 1a 3d 3e b7 1d 3d 6f 02 9a 3d f8 3d 57 3c
       0.037671454 0.03850483 0.075199954 0.013137333

layers.2.bias f4 [100]
000000 09 8f 97 3d 35 d6 8c 3d 44 3a 84 3d 5c 59 be 3c
       0.07400329 0.06876794 0.06456426 0.02323597
000010 9d 83 28 3d 78 48 e7 ba 90 f7 58 bd 34 7c f9 3c
       0.04114114 -0.0017645499 -0.05297047 0.030454732
000020 be 8f 47 bd 3c 4e d3 3c d7 35 52 bd 97 75 2d bd
       -0.048721068 0.025794141 -0.051320877 -0.04234847
000030 40 56 a1 bd 98 e4 dc bc 0a de 79 3d 59 66 0e 3d
       -0.07877779 -0.02696447 0.06100277 0.034765575
000040 30 93 04 bc d9 14 6f 3d a9 2b 92 3d e3 6d 2f bd
       -0.008091733 0.05836949 0.07137234 -0.042829406
000050 ae 93 97 bd 59 b7 9d 3d 12 c2 b9 bd 6d 12 9e bd
       -0.074012145 0.077009864 -0.09070219 -0.07718358
000060 1b 93 b0 bd c5 0c 84 bd a0 95 8a bd 93 c8 89 3b
       -0.08621808 -0.06447748 -0.0676682 0.0042048185
000070 bf c4 2c bd 4d 21 95 3d 31 42 af bd 72 94 9a bd
       -0.04217982 0.07281742 -0.08557547 -0.07547845
000080 72 d6 bc bd 74 83 bd bd 28 c2 c6 3c 65 c6 8d bd
       -0.0922059 -0.09253588 0.024262503 -0.069226064
000090 ec fa b2 bc 52 08 47 bd a3 27 d9 bc f7 7a 2b bd
       -0.021848164 -0.04859192 -0.026508158 -0.041865315
0000a0 28 9c 71 3d b7 5f 35 bd c6 81 56 bd 28 5a 56 3d
       0.058986813 -0.044280734 -0.052369855 0.052332073
0000b0 01 2a ba 3d 5a 6b aa 3d d0 28 74 bc 40 46 92 3c
       0.09090043 0.08321257 -0.014902309 0.017855763
0000c0 9a 81 54 bd 98 60 20 bc 77 e4 54 3c 0d 5d 6f bd
       -0.05188141 -0.009788655 0.012993923 -0.05843835
0000d0 5a b6 6a bc 30 00 4e 3d 1c cd e9 3c 03 98 be 3d
       -0.014325703 0.050293148 0.028540187 0.09306338
0000e0 a1 d1 eb bc ed a8 2b bd f0 5d c1 bd bf 18 45 3d
       -0.028786482 -0.041909147 -0.09441745 0.048119303
0000f0 f0 26 46 bd 68 e0 be bd c4 9d 07 3c 40 1c 1d bd
       -0.048376977 -0.09320146 0.00827736 -0.03835702
000100 e3 9a 77 bd 6b 8e 69 3d 9a ad 76 bd b2 86 4c 3d
       -0.060450446 0.057020586 -0.060224153 0.049933143
000110 b5 fe b3 3d bb 35 84 3d 43 34 18 bd 12 5e 9f 3d
       0.08788816 0.06455561 -0.037159216 0.07781614
000120 3c d6 8b bd 05 a3 a5 3d 38 01 88 bc 83 33 38 bd
       -0.06827971 0.08087734 -0.016602144 -0.044971
000130 e0 67 da 3b 42 83 ad 3d 1b 0e ce bc 50 52 9b 3d
       0.006665215 0.08472301 -0.02515321 0.07584059
000140 ec ca bf 3c d0 2b 9f bd 85 c9 9d bd 7d 6e ae 3d
       0.02341219 -0.077720284 -0.077044524 0.08517168
000150 39 e2 ba 3d 4a 2c 81 3d a9 f1 c5 3d 34 55 87 bd
       0.0912518 0.063072756 0.09665234 -0.06608048
000160 4a 2d 5f bd 17 ea 19 bd fa 64 63 bd ec d7 c7 bc
       -0.05448655 -0.03757676 -0.05551622 -0.024394952
000170 96 48 1a 3d f4 30 83 3c 1a a1 74 3d e8 c2 f9 bc
       0.03766688 0.016014554 0.05972395 -0.030488446
000180 1f de ae 3d 0e 76 8a 3c 8b b8 81 3d 6f 9e 9f 3d
       0.0853846 0.016901996 0.06334027 0.07793891

layers.4.weight f4 [12, 100]
000000 49 8e 3a bb 98 b0 c4 3d e9 b3 64 3d f8 89 69 bd
       -0.0028466156 0.09603995 0.05583564 -0.057016343
000010 78 f6 28 3c f0 9a 40 bd d8 07 9b 3c 20 59 77 bd
       0.010312669 -0.04702276 0.018924639 -0.06038773
000020 b5 f3 03 bd 77 9d 28 bd 2a 73 c6 bd 19 0d bc 3d
       -0.03221484 -0.041165795 -0.096899346 0.09182186
000030 4a 39 0c bd 00 fc fa bc 62 fb 0f 3a 1b c8 8a 3b
       -0.034234323 -0.030637741 0.0005492476 0.00423528
000040 b6 02 ac bd 0c 5e f4 3c e7 59 7f bd 36 a7 a2 bd
       -0.083989546 0.029830001 -0.062341597 -0.07942049
000050 ba e0 75 bd ce b3 9f bd d1 70 a0 3d 0a 9d 1c 3d
       -0.06002877 -0.07797967 0.07834018 0.0382357
000060 d4 09 bc 3d 46 cf a4 bd 62 95 a2 bd f8 cd 2d 3d
       0.09181562 -0.08047347 -0.07938649 0.042432755
000070 e2 56 33 bd 07 e8 f3 bc 7c 42 66 bd 08 52 ac bd
       -0.04378403 -0.029773725 -0.05621575 -0.08414084
000080 1d 4c 71 bd 0f 70 7e bd fe da 51 3d 40 fa 2c bb
       -0.058910478 -0.062118586 0.051234238 -0.0026394278
000090 12 f7 7f 3d 4f e7 b6 3d 46 8f 8c 3d 76 b0 a6 bd
       0.062491484 0.08930837 0.06863265 -0.08139126
0000a0 7f 25 5c 3d 62 47 69 3d c0 89 2d bd 17 c7 a4 bc
       0.053746697 0.05695284 -0.042367697 -0.020114465
0000b0 9a ad 09 3d 5c 9a f4 bb d0 84 7a bd 8c 2b 91 bc
       0.033612825 -0.00746469 -0.061161816 -0.01772096
0000c0 48 0c e2 bc e2 95 7a 3d a1 9c 34 3d 13 07 80 3d
       -0.027593747 0.061178096 0.044094685 0.06251349
0000d0 f9 66 81 bb 5f 57 b5 bd ae cf cc 3d 60 ad 4a 3b
       -0.003949043 -0.08854555 0.10000549 0.0030926093
0000e0 68 08 2e 3d f7 4b 68 bd 50 49 a2 bb a2 91 ed 3c
       0.042488486 -0.05671307 -0.004952587 0.029000107
0000f0 5a 97 26 bd ca d3 62 bd 0a c5 04 3d b1 6f a4 3d
       -0.040671684 -0.05537776 0.032414474 0.08029116
000100 a7 ca 9f 3d 51 d7 17 3d 10 81 0b 3c 6a 1a 38 3d
       0.07802325 0.037070576 0.008514658 0.044947065
000110 b5 f1 fb bc 0a 45 9f 3d f9 70 59 3d a6 48 cb bd
       -0.030754903 0.0777684 0.053086255 -0.09925966
000120 71 bd ba 3d d0 37 9a 3b 5d d9 9a bd 73 bc 1c bd
       0.09118164 0.0047063604 -0.0756099 -0.038265657
000130 89 eb c6 3d ca 61 a0 bd 5b 93 d0 3c c8 83 08 bd
       0.097128935 -0.07831152 0.02546089 -0.0333288
000140 82 37 a8 bd 86 93 34 3d 97 d2 82 3d b7 54 c9 3d
       -0.08213712 0.044086 0.06387823 0.09830611
000150 b2 9c a4 bd 16 a0 4a 3d af bf 91 3d a0 29 21 bb
       -0.080377 0.049469076 0.07116639 -0.002459146
000160 1f 73 a9 3d 69 f6 ba 3d 48 db a5 bd fe ce 4d 3d
       0.08273911 0.0912903 -0.08098465 0.05024623
000170 0e 86 d8 3c 7c 12 35 3c d5 19 9c 3d 00 f0 af 3b
       0.02643111 0.01105177 0.076221146 0.0053691864
000180 dd 29 15 bd 40 f6 b3 3d b7 df 70 3d ef 2e 52 3d
       -0.036416877 0.08787203 0.0588071 0.05131429
000190 dd ab cf bc da 51 ab bd 4e d7 55 bc 37 c1 bb bc
       -0.025350505 -0.08365221 -0.013051821 -0.02291928
0001a0 76 ba a0 bc cf af 46 bd 1d 0e 93 3d c0 49 88 bc
       -0.019620162 -0.048507508 0.07180426 -0.01663673
0001b0 34 6f c8 bd 7e 4f 83 bd e8 9b ca bd 3e ab 62 3d
       -0.09786835 -0.06411646 -0.09893018 0.05533909
0001c0 10 f9 3b bc 0d c6 50 bd 22 e0 9a bd fb ff 4b 3d
       -0.011472955 -0.050970126 -0.07562281 0.04980467
0001d0 aa 01 b1 bd c0 38 b6 bd 80 a1 13 bc a6 91 74 3d
       -0.086428955 -0.08897543 -0.009010673 0.059709214
0001e0 80 b7 a1 bd 72 96 84 bd 1e 0e 04 3d 02 f3 c6 bd
       -0.07896328 -0.06474008 0.032240026 -0.09714319
0001f0 2a a7 90 3d 52 f5 5a 3d 32 e4 47 3d b3 0c b0 3d
       0.07063134 0.053456612 0.04880161 0.08596172
000200 d3 e8 b2 3d 55 f4 36 bd 0e a6 69 3d ce ab 5f 3d
       0.08735814 -0.044666607 0.057043128 0.054607205
000210 02 72 39 3d ea 34 d6 bc 2a 65 61 bd 7e f5 84 bd
       0.045274742 -0.026148278 -0.05502812 -0.064921364
000220 00 cd af 3c 40 21 d7 ba 78 6a c8 3b f9 6c b7 3d
       0.021460056 -0.0016413108 0.0061162077 0.08956332
000230 6e 0e 9d bd d4 82 bd 3c 86 69 9a 3c f7 2a 6a bb
       -0.07668768 0.023133673 0.018849146 -0.0035731175
000240 17 94 87 3d 60 aa 86 3d 75 e2 89 bd a0 aa 91 3c
       0.06620043 0.06575465 -0.067326464 0.017781556
000250 0d 7e 76 bd d3 7b 62 bd a7 eb a8 bd 72 b6 18 3d
       -0.060178805 -0.05529387 -0.08248072 0.03728337
000260 ff 44 0d bc 87 b0 7f bd 9c fd 98 bc a0 a1 f1 bb
       -0.008622407 -0.06242421 -0.018675618 -0.0073740035
000270 48 6b 20 3d d7 47 ae 3d 82 fb 87 bd bd 0d 9f bb
       0.03916481 0.08509796 -0.06639768 -0.0048539327
000280 49 3b c6 3d 03 0c 87 3d c9 cf 3b 3d f8 89 f6 bc
       0.096792765 0.06594088 0.045852456 -0.030095086
000290 54 ce 8e 3c 40 57 f7 3b 80 7f c0 3a 09 a7 85 3d
       0.01743237 0.007548243 0.0014686435 0.06526
0002a0 ee ee 06 bd 23 fe c2 bc 93 43 91 3d e3 16 d9 3c
       -0.032942705 -0.023802822 0.07092967 0.026500171
0002b0 9d 71 c2 bd ec a5 a0 bc f5 29 8a 3d 96 34 78 3d
       -0.09494326 -0.019610368 0.06746284 0.060597025
0002c0 8d ac 88 3d ec 42 6e bd 08 bc 96 bd 37 9c 07 3d
       0.066735364 -0.05816929 -0.07360083 0.033107962
0002d0 d1 2a 9d 3d a1 4f ae 3d 09 34 31 3d ce ca 71 3d
       0.07674182 0.08511282 0.043262515 0.0590313
0002e0 e0 48 8c bd 1e ac cd 3c d0 d7 28 bc 80 63 92 ba
       -0.06849837 0.025106486 -0.01030536 -0.0011168569
0002f0 06 3f 2a 3d 32 6c 99 bd c0 0b 1e 3c 8c 81 0f bd
       0.04156401 -0.0749134 0.009646356 -0.035035655
000300 98 ca 51 3d 39 2c b3 bd db fb 5c bd 53 49 92 bd
       0.0512186 -0.08748669 -0.053951126 -0.07142892
000310 9a 15 9b 3d 04 2e 82 3d 12 75 ab 3d 83 c0 cb 3d
       0.075724795 0.06356433 0.08371939 0.09948828
000320 72 4e fa 3c a5 ff 37 3c c7 11 e1 3c 59 36 42 3c
       0.030554984 0.011230384 0.027474297 0.011853778
000330 ee e2 38 3c b0 1d 98 bd d1 90 9d 3d 3e b0 8a bd
       0.011284573 -0.074275374 0.07693637 -0.06771897
000340 85 85 8a 3d 8e e9 3b 3d bc 60 d4 3c b2 71 19 3d
       0.06763748 0.045877032 0.025925033 0.037461944
000350 38 ca b3 3c 30 fb 48 bd be 70 5a bd 98 67 50 bd
       0.021947011 -0.049067676 -0.053330176 -0.050880045
000360 3d 94 76 bd 37 5d 3a 3d 30 cf f3 3b 00 ec 86 ba
       -0.060199965 0.045499053 0.00744047 -0.0010293722
000370 4c 50 db 3c 09 2b bd 3d 20 e2 fd bb c7 aa 44 bd
       0.026771687 0.09236724 -0.0077479035 -0.04801443
000380 62 1e 9d bd 23 36 a9 3d 27 f7 b4 bd be 90 46 3d
       -0.07671811 0.08262279 -0.08836203 0.04847788
000390 f8 fd b1 3d bf f9 59 3d e6 b3 40 bb 40 c4 54 bc
       0.08691019 0.053216692 -0.0029404103 -0.012986243
0003a0 99 c3 81 3d 7c cd 5a bd 8a cc 10 3d 0c 32 fd bc
       0.063361354 -0.05341862 0.035351314 -0.030907653
0003b0 6a ce 57 3d 2e 1a b5 bc c2 f9 88 bd a7 68 1c bd
       0.052687086 -0.02210721 -0.066882625 -0.03818574
0003c0 6a f8 81 3d 72 7a 15 3d d1 77 91 bd 9e 15 86 bd
       0.06346209 0.036493726 -0.07102931 -0.06547092
0003d0 ec 1e a8 bc f2 a2 21 bc 38 53 e6 bc f1 b1 89 3d
       -0.020522557 -0.009865509 -0.028115854 0.06723393
0003e0 60 77 e3 3b d8 dc da bc ff 79 bf bb d2 8e 3b 3d
       0.006941721 -0.026716635 -0.0058434005 0.0457905
0003f0 3d 1b 8f bd 01 61 c9 bd 93 6e a4 bd 62 16 34 3d
       -0.06987617 -0.09832955 -0.08028903 0.04396666

layers.4.bias f4 [12]
000000 59 f0 5f bc 5b ce c2 bd e5 72 14 bd c4 ec 37 3c
       -0.013668143 -0.095120154 -0.036242384 0.011225883
000010 22 b1 61 bd 7d bf 9d 3c ef dc 87 bd e5 05 9b 3d
       -0.055100568 0.019256348 -0.066339366 0.07569484
000020 da be 9c 3d 00 b2 76 3d 7b 7a 15 bc b0 78 c8 bd
       0.076535895 0.060228348 -0.00912344 -0.09788644

Sigma f4 [12, 12]
000000 d0 0b 25 bf e0 dc 8d bf ac 3f 9a 3d 39 e5 b3 3f
       -0.6447115 -1.1083031 0.07531676 1.4054328
000010 81 85 c7 be 4b 16 02 c0 51 88 a4 3e b6 82 3d 3f
       -0.38969043 -2.0326107 0.3213525 0.74027574
000020 f0 00 0d bf 10 6c 5d 3d 09 6f 8c 3e d2 dc ca bf
       -0.55079556 0.054058135 0.27428463 -1.5848639
000030 0f c5 b0 bf 85 4d 9d 3e 49 35 54 bd 57 80 64 3d
       -1.3810138 0.30723205 -0.05180863 0.055786457
000040 2b fc fc 3d 8a f9 8c bf 51 83 1e c0 a7 a3 8f bf
       0.12352785 -1.1013653 -2.476765 -1.1221818
000050 a7 99 88 3d 32 7c 49 3f d2 53 c6 bf f4 f3 2b 3f
       0.06669932 0.7870513 -1.549433 0.6716912
000060 df e7 8f be 29 a3 49 bf 58 60 58 bc f9 b3 aa 3f
       -0.2810659 -0.7876459 -0.013206564 1.3336173
000070 bf b8 35 3f 2a 32 e8 3f 79 58 2e 3f 1d 11 84 3f
       0.70985025 1.8140309 0.6810375 1.0317723
000080 e5 af 9c bf 0d 86 03 bd f0 f3 e5 bd 74 a9 5b bc
       -1.2241179 -0.032110263 -0.11228168 -0.0134071
000090 ec d9 f8 bf 17 c8 17 3f cd 6a 95 bf d5 90 3b 3e
       -1.9441504 0.5928969 -1.1673218 0.18316968
0000a0 3f 32 80 3f a4 f9 b6 bf 42 06 ee bd f5 a4 09 bf
       1.0015334 -1.4294934 -0.11622287 -0.5376733
0000b0 96 0e ba 3e 2b 09 e1 3e 29 34 46 3d 0c 0f 1b bf
       0.36339253 0.43952307 0.048389588 -0.60569835
0000c0 15 9f b6 3d 6e b8 2f 3f af 80 3f bf 93 8b 6d 3f
       0.08917061 0.6864079 -0.7480573 0.927911
0000d0 fe 56 c2 3f 46 87 5c 3f 5f d6 04 bf c4 cb 59 3f
       1.5182798 0.8614391 -0.51889604 0.85076547
0000e0 e1 89 b1 3f 59 67 96 3f 0e 89 8f bf 60 8a fe 3f
       1.3870202 1.1750289 -1.1213701 1.9885979
0000f0 9e 7c 33 3f 42 93 15 3f 8e 25 02 bf df 52 00 40
       0.70112026 0.5842782 -0.50838554 2.005058
000100 da fc b5 bf c2 3f 0d bf a1 6b 3a 3f 95 c3 db bd
       -1.4217789 -0.5517541 0.7282048 -0.10730664
000110 81 32 58 3f d4 42 49 be ae 22 20 be 06 ca 99 bc
       0.8445206 -0.19654399 -0.15638229 -0.01877309
000120 61 12 f6 bf 7f 30 80 bf a5 9f c2 3e 25 ba 25 3f
       -1.9224359 -1.00148 0.38012424 0.6473716
000130 55 c1 c0 be c6 a2 15 40 45 66 1d bf 79 f2 89 3e
       -0.376475 2.33806 -0.61484176 0.26942804
000140 f0 9c 87 3e e6 f4 12 3e 1b 69 8c bf 53 00 9e bf
       0.2648692 0.14351234 -1.0969576 -1.2343849
000150 91 bc 8e bf ed 01 9e 3f ae eb 83 be 7c c1 ab bf
       -1.1151296 1.2344338 -0.25765747 -1.3418422
000160 fa 04 6e be 8f ea fa bd e7 08 e0 bf 0c 16 47 bf
       -0.23244086 -0.1225177 -1.7502717 -0.77768016
000170 c5 28 65 bf 88 12 57 3f 13 76 c1 bf 1d b8 a8 bf
       -0.89515334 0.8401265 -1.5114158 -1.3181187
000180 a9 a3 b4 3f aa c0 fa be 91 8f 05 c0 c3 81 a2 bf
       1.4112445 -0.48975116 -2.0868876 -1.269585
000190 ef 0a 3d bf 1e f0 8d 3e fa c0 04 3e dc d4 7c 3f
       -0.7384481 0.27722257 0.1296424 0.987623
0001a0 53 a0 3a bf 1c 5b 57 bf f4 ff 42 3f 26 47 18 be
       -0.72900885 -0.84123397 0.76171803 -0.14870891
0001b0 b2 67 23 bf a2 03 8f 3f 7e fb 54 3f cd 6a c7 be
       -0.638301 1.1172984 0.83196247 -0.3894867
0001c0 91 46 17 bf f4 93 24 3f a1 b4 3f 3f 7b e7 dd 3e
       -0.5909205 0.6428826 0.7488499 0.43340668
0001d0 62 21 a5 3f 65 ca a6 bf 0f b4 77 be ee 32 d8 bd
       1.2900813 -1.3030516 -0.2418978 -0.10556589
0001e0 0b 4e 83 3f f6 e4 a5 bf 55 63 85 3e 2f 9a a1 be
       1.0258192 -1.2960498 0.26052347 -0.31562945
0001f0 75 bd cc be f5 58 8e 3f e7 1f 53 bd 92 24 14 3c
       -0.39988294 1.1120898 -0.051544096 0.009041922
000200 31 26 1d c0 e3 4f 85 bf 99 6c 96 3f 1b 09 e5 3e
       -2.455456 -1.0415004 1.1751891 0.4473351
000210 fa eb 36 3e 67 42 e0 3e f8 56 54 3f 94 4d 3a bf
       0.17863455 0.4380066 0.82945204 -0.72774625
000220 af 7e d0 bf 77 d2 3a bf e5 da 3f 3f 30 e5 46 bf
       -1.6288661 -0.72977394 0.7494338 -0.7769346
000230 91 87 92 bf 09 b3 16 bf 84 4d 65 bf b6 91 45 bf
       -1.1447622 -0.58866936 -0.89571404 -0.7717546

exp_avg f4 [100, 12]
000000 80 7d a6 3e 68 a0 54 3e 95 37 de 3d 90 97 d3 3d
       0.32517624 0.20764315 0.10850445 0.10331643
000010 8c a9 52 3e ab 0e a4 3e 18 26 87 3c 30 44 26 3d
       0.2057249 0.3204244 0.016497657 0.040592372
000020 97 fd d3 3c d6 1c d4 bc 31 74 0b bd 7d a9 8f bc
       0.025877757 -0.025892656 -0.034046356 -0.017536873
000030 dc 28 1f 3e 31 f4 ca 3d e2 f2 52 3d e8 65 4c 3d
       0.1554293 0.09909857 0.051501162 0.049901873
000040 aa 70 ca 3d 65 a3 1d 3e ad f9 09 3c 9e 56 99 3c
       0.0988477 0.15394361 0.008421344 0.01871806
000050 15 ce 4d 3c 66 08 32 bc f5 82 8d bc 30 0f 0d bc
       0.012561341 -0.01086626 -0.01727436 -0.008609578
000060 00 00 00 00 00 00 00 00 00 00 00 00 00 00 00 00
       0.0 0.0 0.0 0.0
000070 00 00 00 00 00 00 00 00 00 00 00 00 00 00 00 00
       0.0 0.0 0.0 0.0
000080 00 00 00 00 00 00 00 00 00 00 00 00 00 00 00 00
       0.0 0.0 0.0 0.0
000090 09 f5 b1 3e 61 4f 5a 3e 0b 81 ed 3d d4 ed dd 3d
       0.3475726 0.21319343 0.115968786 0.10836378
0000a0 aa bd 55 3e 0a 77 ac 3e 60 bd 95 3c f4 0e 2e 3d
       0.20873132 0.3368457 0.018278778 0.04249473
0000b0 db 71 00 3d 23 de dc bc d4 b3 04 bd ff aa 5c bc
       0.03135858 -0.026961392 -0.03239806 -0.013468503
0000c0 00 00 00 00 00 00 00 00 00 00 00 00 00 00 00 00
       0.0 0.0 0.0 0.0
0000d0 00 00 00 00 00 00 00 00 00 00 00 00 00 00 00 00
       0.0 0.0 0.0 0.0
0000e0 00 00 00 00 00 00 00 00 00 00 00 00 00 00 00 00
       0.0 0.0 0.0 0.0
0000f0 00 00 00 00 00 00 00 00 00 00 00 00 00 00 00 00
       0.0 0.0 0.0 0.0
000100 00 00 00 00 00 00 00 00 00 00 00 00 00 00 00 00
       0.0 0.0 0.0 0.0
000110 00 00 00 00 00 00 00 00 00 00 00 00 00 00 00 00
       0.0 0.0 0.0 0.0
000120 1a 29 75 3d 60 61 1a 3d 45 d2 ae 3c 24 fe 97 3c
       0.05985365 0.03769052 0.021340499 0.0185538
000130 b6 9a 22 3d 8c 0d 70 3d 9d d0 27 3b f6 0b b3 3b
       0.039698325 0.05860667 0.002560652 0.0054640723
000140 8e eb c8 3b 9c bd c5 bb 7b 1d 93 bb 29 77 b8 bb
       0.006131596 -0.006034566 -0.0044895983 -0.0056294394
000150 9e d2 3a 3f ba 8c e8 3e 63 e4 77 3e bc 31 6d 3e
       0.72977626 0.45419866 0.24208216 0.23163503
000160 4f 33 e6 3e dc 96 36 3f ab bd 0c 3d f8 02 b4 3d
       0.4496102 0.71323943 0.03436057 0.08789629
000170 b6 5b 86 3d fe ac 6d bd b5 17 93 bd 47 83 12 bd
       0.06560461 -0.058026306 -0.07182256 -0.035769727
000180 c8 12 58 3d 0e 7c 09 3d aa 5c 8f 3c 6e dc 85 3c
       0.052752286 0.033565573 0.01750024 0.01634046
000190 0b 85 01 3d 50 17 54 3d c2 b2 93 3b 9a d0 05 3c
       0.03162102 0.051780045 0.0045073936 0.00816741
0001a0 d7 cf 03 3b 06 5a 3b bb 40 1b da bb 41 ca 4b ba
       0.0020112896 -0.0028587594 -0.0066560805 -0.00077739736
0001b0 00 00 00 00 00 00 00 00 00 00 00 00 00 00 00 00
       0.0 0.0 0.0 0.0
0001c0 00 00 00 00 00 00 00 00 00 00 00 00 00 00 00 00
       0.0 0.0 0.0 0.0
0001d0 00 00 00 00 00 00 00 00 00 00 00 00 00 00 00 00
       0.0 0.0 0.0 0.0
0001e0 00 00 00 00 00 00 00 00 00 00 00 00 00 00 00 00
       0.0 0.0 0.0 0.0
0001f0 00 00 00 00 00 00 00 00 00 00 00 00 00 00 00 00
       0.0 0.0 0.0 0.0
000200 00 00 00 00 00 00 00 00 00 00 00 00 00 00 00 00
       0.0 0.0 0.0 0.0
000210 00 00 00 00 00 00 00 00 00 00 00 00 00 00 00 00
       0.0 0.0 0.0 0.0
000220 00 00 00 00 00 00 00 00 00 00 00 00 00 00 00 00
       0.0 0.0 0.0 0.0
000230 00 00 00 00 00 00 00 00 00 00 00 00 00 00 00 00
       0.0 0.0 0.0 0.0
000240 d6 5b 87 bd 37 2c 2b bd 96 85 af bc f5 2e b3 bc
       -0.06609313 -0.041790213 -0.021426003 -0.021872977
000250 8b 75 31 bd 13 c4 86 bd 2f d3 d7 ba 4f bb c7 bb
       -0.04332499 -0.06580367 -0.0016466136 -0.006095327
000260 3f 27 dd bb 52 2a a8 3b 66 28 e6 3b 5a f0 b8 3b
       -0.0067490633 0.005131998 0.007023859 0.0056438865
000270 6c 37 c3 3e f4 6f 75 3e 0c 1f 01 3e b0 bb fb 3d
       0.3812822 0.23968488 0.126095 0.12291658
000280 fa 85 72 3e 94 bf bf 3e 66 67 ad 3c 8c 95 40 3d
       0.2368392 0.3745085 0.021167468 0.04701762
000290 66 ff ff 3c ba 17 de bc 0d eb 29 bd ee 5f 98 bc
       0.031249713 -0.027110923 -0.041483928 -0.01860043
0002a0 00 00 00 00 00 00 00 00 00 00 00 00 00 00 00 00
       0.0 0.0 0.0 0.0
0002b0 00 00 00 00 00 00 00 00 00 00 00 00 00 00 00 00
       0.0 0.0 0.0 0.0
0002c0 00 00 00 00 00 00 00 00 00 00 00 00 00 00 00 00
       0.0 0.0 0.0 0.0
0002d0 f8 e7 57 3e aa 14 05 3e 15 95 8e 3d 95 a1 88 3d
       0.21084583 0.12996164 0.06962029 0.06671444
0002e0 c7 e6 01 3e 00 5b 52 3e 56 40 3a 3c 01 13 d8 3c
       0.12685691 0.20542526 0.011367878 0.02637625
0002f0 90 40 91 3c fc 76 78 bc 54 68 ae bc c2 59 f8 bb
       0.017730981 -0.015165087 -0.021289982 -0.0075790593
000300 03 f0 f0 be 21 56 95 be b6 a7 1e be 75 56 1a be
       -0.47058114 -0.29167274 -0.15493664 -0.15072043
000310 9b fc 92 be b9 47 eb be 3c 9c c4 bc 90 dc 68 bd
       -0.28708348 -0.45953158 -0.02400028 -0.05685097
000320 6d 29 2a bd f4 a4 0d 3d da 1e 46 3d 86 c6 ae 3c
       -0.041543413 0.03458114 0.048369266 0.021334898
000330 00 00 00 00 00 00 00 00 00 00 00 00 00 00 00 00
       0.0 0.0 0.0 0.0
000340 00 00 00 00 00 00 00 00 00 00 00 00 00 00 00 00
       0.0 0.0 0.0 0.0
000350 00 00 00 00 00 00 00 00 00 00 00 00 00 00 00 00
       0.0 0.0 0.0 0.0
000360 4b 79 9c 3e af 05 4e 3e 8f 31 d3 3d f5 a9 ce 3d
       0.3056129 0.20119356 0.10312187 0.100910105
000370 95 6e 51 3e 6a a8 9c 3e 46 60 92 3c 52 66 15 3d
       0.2045234 0.3059724 0.017868172 0.036474533
000380 95 f4 b5 3c 9a f7 b8 bc d7 10 19 bd 8b bd bd bc
       0.022211352 -0.022579003 -0.037369575 -0.02316167
000390 00 00 00 00 00 00 00 00 00 00 00 00 00 00 00 00
       0.0 0.0 0.0 0.0
0003a0 00 00 00 00 00 00 00 00 00 00 00 00 00 00 00 00
       0.0 0.0 0.0 0.0
0003b0 00 00 00 00 00 00 00 00 00 00 00 00 00 00 00 00
       0.0 0.0 0.0 0.0
0003c0 00 00 00 00 00 00 00 00 00 00 00 00 00 00 00 00
       0.0 0.0 0.0 0.0
0003d0 00 00 00 00 00 00 00 00 00 00 00 00 00 00 00 00
       0.0 0.0 0.0 0.0
0003e0 00 00 00 00 00 00 00 00 00 00 00 00 00 00 00 00
       0.0 0.0 0.0 0.0
0003f0 00 00 00 00 00 00 00 00 00 00 00 00 00 00 00 00
       0.0 0.0 0.0 0.0

exp_avg_sq f4 [100, 12]
000000 71 56 3d 3c a1 02 a4 3b 9d 38 aa 3a 5d b2 a4 3a
       0.011556254 0.005005196 0.0012986843 0.0012565363
000010 54 df a2 3b ca e9 3d 3c 01 b3 86 38 d7 43 64 39
       0.0049704704 0.011591384 6.42296e-05 0.00021769047
000020 53 b8 5e 38 90 03 3a 38 ec 41 50 39 c3 c9 2e 38
       5.310059e-05 4.4349174e-05 0.00019860984 4.1672738e-05
000030 a4 cf 0c 3b 08 ef 73 3a 68 98 79 39 e5 bb 72 39
       0.0021486068 0.0009305333 0.00023803266 0.00023148915
000040 cc 55 74 3a 1b a4 0e 3b 17 f7 28 37 98 9c 29 38
       0.0009320646 0.0021765295 1.007111e-05 4.043858e-05
000050 5e 98 2b 37 28 90 08 37 b7 de 1e 38 49 fe e6 36
       1.022787e-05 8.139796e-06 3.7877555e-05 6.884137e-06
000060 00 00 00 00 00 00 00 00 00 00 00 00 00 00 00 00
       0.0 0.0 0.0 0.0
000070 00 00 00 00 00 00 00 00 00 00 00 00 00 00 00 00
       0.0 0.0 0.0 0.0
000080 00 00 00 00 00 00 00 00 00 00 00 00 00 00 00 00
       0.0 0.0 0.0 0.0
000090 e5 1e 14 3d fb e7 80 3c 86 f4 81 3b db 9d 81 3b
       0.036162276 0.015735617 0.003965917 0.0039555854
0000a0 89 7c 81 3c 11 5c 15 3d 85 cb 24 39 f0 fa 2c 3a
       0.015806453 0.036464754 0.00015716076 0.0006598672
0000b0 2b 3f 3c 39 77 59 11 39 1f 25 2b 3a 9f 0f 10 39
       0.00017952609 0.00013861606 0.0006528664 0.0001373873
0000c0 00 00 00 00 00 00 00 00 00 00 00 00 00 00 00 00
       0.0 0.0 0.0 0.0
0000d0 00 00 00 00 00 00 00 00 00 00 00 00 00 00 00 00
       0.0 0.0 0.0 0.0
0000e0 00 00 00 00 00 00 00 00 00 00 00 00 00 00 00 00
       0.0 0.0 0.0 0.0
0000f0 00 00 00 00 00 00 00 00 00 00 00 00 00 00 00 00
       0.0 0.0 0.0 0.0
000100 00 00 00 00 00 00 00 00 00 00 00 00 00 00 00 00
       0.0 0.0 0.0 0.0
000110 00 00 00 00 00 00 00 00 00 00 00 00 00 00 00 00
       0.0 0.0 0.0 0.0
000120 82 f8 bc 3a 72 91 27 3a 31 d8 24 39 66 d1 2d 39
       0.0014417323 0.00063922175 0.00015720796 0.00016576573
000130 40 0d 25 3a b0 82 c1 3a ba ce f0 36 e4 a5 ff 37
       0.0006296225 0.0014763679 7.1766235e-06 3.0475618e-05
000140 1f 9f a1 36 e4 5a bc 36 f2 c3 fe 37 9c 31 b6 36
       4.816698e-06 5.6134177e-06 3.0370404e-05 5.429798e-06
000150 70 0d ec 3d ac 88 4c 3d 16 8b 50 3c 1d 28 4d 3c
       0.115260005 0.049935028 0.012728473 0.012521771
000160 93 d0 4c 3d 5c 94 ed 3d 73 ea 12 3a 86 82 0e 3b
       0.0500036 0.11600563 0.00056043937 0.0021745279
000170 b1 e4 0b 3a a0 39 e1 39 61 bb 09 3b d4 20 cf 39
       0.0005336507 0.00042958278 0.0021016228 0.00039506576
000180 99 05 2e 3b a2 53 9a 3a 45 dc 98 39 cf bb 9e 39
       0.002655363 0.0011774192 0.00029155813 0.00030276037
000190 65 69 9a 3a fb d8 2e 3b f1 77 2f 37 49 25 40 38
       0.0011780678 0.0026679623 1.0458739e-05 4.581109e-05
0001a0 03 51 5e 37 cf 56 4d 37 79 5b 41 38 72 49 6d 37
       1.3251093e-05 1.2239164e-05 4.6099976e-05 1.4143401e-05
0001b0 00 00 00 00 00 00 00 00 00 00 00 00 00 00 00 00
       0.0 0.0 0.0 0.0
0001c0 00 00 00 00 00 00 00 00 00 00 00 00 00 00 00 00
       0.0 0.0 0.0 0.0
0001d0 00 00 00 00 00 00 00 00 00 00 00 00 00 00 00 00
       0.0 0.0 0.0 0.0
0001e0 00 00 00 00 00 00 00 00 00 00 00 00 00 00 00 00
       0.0 0.0 0.0 0.0
0001f0 00 00 00 00 00 00 00 00 00 00 00 00 00 00 00 00
       0.0 0.0 0.0 0.0
000200 00 00 00 00 00 00 00 00 00 00 00 00 00 00 00 00
       0.0 0.0 0.0 0.0
000210 00 00 00 00 00 00 00 00 00 00 00 00 00 00 00 00
       0.0 0.0 0.0 0.0
000220 00 00 00 00 00 00 00 00 00 00 00 00 00 00 00 00
       0.0 0.0 0.0 0.0
000230 00 00 00 00 00 00 00 00 00 00 00 00 00 00 00 00
       0.0 0.0 0.0 0.0
000240 39 16 23 3b 0c 72 91 3a 41 86 8f 39 2b c9 93 39
       0.0024885072 0.0011096611 0.00027375112 0.00028187907
000250 7b 7c 92 3a 0e 68 25 3b 04 a6 2e 37 d6 22 4c 38
       0.0011176014 0.0025239023 1.0409862e-05 4.8669834e-05
000260 99 d2 30 37 b4 c2 39 37 e3 93 48 38 33 e4 3f 37
       1.0539451e-05 1.1072192e-05 4.7821446e-05 1.1437619e-05
000270 15 d1 b3 3c 21 33 1b 3c 16 1e 1f 3b c8 70 1a 3b
       0.021950284 0.009472639 0.0024279407 0.0023565758
000280 72 6b 1b 3c f6 9c b4 3c ab 41 d5 38 b1 e9 cf 39
       0.009486066 0.022047501 0.00010168863 0.0003965623
000290 f6 8d d9 38 e8 2c b5 38 97 6f c8 39 5d 7b 9d 38
       0.000103738086 8.639117e-05 0.00038230114 7.5093216e-05
0002a0 00 00 00 00 00 00 00 00 00 00 00 00 00 00 00 00
       0.0 0.0 0.0 0.0
0002b0 00 00 00 00 00 00 00 00 00 00 00 00 00 00 00 00
       0.0 0.0 0.0 0.0
0002c0 00 00 00 00 00 00 00 00 00 00 00 00 00 00 00 00
       0.0 0.0 0.0 0.0
0002d0 42 5a 7e 3c 75 7c dc 3b 88 e9 e1 3a ea bd db 3a
       0.015524449 0.0067287036 0.0017235735 0.0016764973
0002e0 3f 11 dd 3b b6 31 7f 3c a0 f2 94 38 52 cc 8f 39
       0.0067464407 0.015575817 7.1023824e-05 0.00027427316
0002f0 27 48 9d 38 29 bb 83 38 ab c3 8a 39 ee c1 79 38
       7.499783e-05 6.281428e-05 0.00026467195 5.9546837e-05
000300 1e a5 6a 3d 6b a3 cc 3c 98 58 cf 3b ea 2b cc 3b
       0.057286374 0.024980268 0.0063277 0.006230821
000310 94 22 cd 3c 57 c2 6c 3d 9d 50 8b 39 2a b0 8a 3a
       0.025040902 0.057802524 0.00026572208 0.0010581065
000320 93 f9 9c 39 d9 eb 74 39 f1 f7 84 3a 87 b1 61 39
       0.00029940586 0.00023357513 0.0010144693 0.00021523806
000330 00 00 00 00 00 00 00 00 00 00 00 00 00 00 00 00
       0.0 0.0 0.0 0.0
000340 00 00 00 00 00 00 00 00 00 00 00 00 00 00 00 00
       0.0 0.0 0.0 0.0
000350 00 00 00 00 00 00 00 00 00 00 00 00 00 00 00 00
       0.0 0.0 0.0 0.0
000360 b9 4d b2 3b e4 dd 1d 3b a0 02 1e 3a 78 80 20 3a
       0.005441394 0.0024088556 0.0006027613 0.0006122659
000370 25 1e 1e 3b f8 58 b3 3b f4 10 b6 37 7b 74 d0 38
       0.0024126854 0.0054732524 2.1703985e-05 9.939909e-05
000380 f1 88 d0 37 cb 54 e3 37 72 6d c4 38 c0 09 dd 37
       2.48593e-05 2.7099994e-05 9.366394e-05 2.6349793e-05
000390 00 00 00 00 00 00 00 00 00 00 00 00 00 00 00 00
       0.0 0.0 0.0 0.0
0003a0 00 00 00 00 00 00 00 00 00 00 00 00 00 00 00 00
       0.0 0.0 0.0 0.0
0003b0 00 00 00 00 00 00 00 00 00 00 00 00 00 00 00 00
       0.0 0.0 0.0 0.0
0003c0 00 00 00 00 00 00 00 00 00 00 00 00 00 00 00 00
       0.0 0.0 0.0 0.0
0003d0 00 00 00 00 00 00 00 00 00 00 00 00 00 00 00 00
       0.0 0.0 0.0 0.0
0003e0 00 00 00 00 00 00 00 00 00 00 00 00 00 00 00 00
       0.0 0.0 0.0 0.0
0003f0 00 00 00 00 00 00 00 00 00 00 00 00 00 00 00 00
       0.0 0.0 0.0 0.0

exp_avg f4 [100]
000000 ea cb da 3e 77 6e 52 3e 00 00 00 00 c2 c4 e6 3e
       0.427337 0.20549951 0.0 0.4507199
000010 00 00 00 00 00 00 00 00 6c 86 a3 3d 53 45 74 3f
       0.0 0.0 0.07984623 0.9541828
000020 18 53 8a 3d 00 00 00 00 00 00 00 00 00 00 00 00
       0.0675413 0.0 0.0 0.0
000030 60 e8 b5 bd 8f 02 00 3f 00 00 00 00 2e 52 8c 3e
       -0.08882213 0.50003904 0.0 0.27406448
000040 1f f2 1c bf 00 00 00 00 13 fd d0 3e 00 00 00 00
       -0.6130695 0.0 0.4081808 0.0
000050 00 00 00 00 00 00 00 00 f6 8a f1 3e 00 00 00 00
       0.0 0.0 0.4717633 0.0
000060 00 00 00 00 00 00 00 00 c5 b8 29 3f 00 00 00 00
       0.0 0.0 0.6629756 0.0
000070 00 00 00 00 02 e9 3c 3e 00 00 00 00 00 00 00 00
       0.0 0.1844826 0.0 0.0
000080 4e 84 11 3e 7b 76 02 be d8 a5 fd 3e 00 00 00 00
       0.14210626 -0.12740509 0.4954059 0.0
000090 00 00 00 00 ab c9 17 3f 58 e4 7c 3f 97 2b b6 3e
       0.0 0.59292096 0.98785925 0.3558013
0000a0 00 00 00 00 a0 8a 07 3d 9d 25 14 3f 46 61 97 bd
       0.0 0.033091187 0.57869893 -0.073916
0000b0 47 88 58 bd f0 4f 15 bf 00 00 00 00 00 00 00 00
       -0.05286434 -0.583251 0.0 0.0
0000c0 00 00 00 00 42 7e 12 bf 00 00 00 00 00 00 00 00
       0.0 -0.57223904 0.0 0.0
0000d0 00 00 00 00 00 00 00 00 06 9d 46 3d c2 98 b3 3e
       0.0 0.0 0.048489593 0.35077482
0000e0 79 fc 9c 3e 00 00 00 00 6a 7c df be 00 00 00 00
       0.3066137 0.0 -0.43649608 0.0
0000f0 72 27 b3 3e 00 00 00 00 00 00 00 00 00 00 00 00
       0.34991032 0.0 0.0 0.0
000100 82 fc 91 3e 00 00 00 00 00 00 00 00 61 ab ab be
       0.2851296 0.0 0.0 -0.3352919
000110 c3 35 51 3f 00 00 00 00 00 00 00 00 da a3 65 3e
       0.8172266 0.0 0.0 0.22425786
000120 00 00 00 00 70 15 b3 be 00 00 00 00 40 e3 49 3b
       0.0 -0.34977293 0.0 0.0030805618
000130 25 6e 12 3f 9f f9 79 3f 00 00 00 00 32 32 69 3e
       0.5719932 0.97646517 0.0 0.22773054
000140 00 00 00 00 f1 6a a4 be 00 00 00 00 00 00 00 00
       0.0 -0.3211284 0.0 0.0
000150 00 00 00 00 00 00 00 00 d2 76 f4 be 00 00 00 00
       0.0 0.0 -0.47746903 0.0
000160 00 00 00 00 84 7c 26 3f 4c d8 a3 3d 6a 69 26 3f
       0.0 0.65033746 0.0800024 0.650046
000170 cf 28 af 3e 00 00 00 00 13 e0 39 3f cd 71 39 be
       0.34210822 0.0 0.72607535 -0.18109818
000180 59 12 07 3e 00 00 00 00 32 b3 21 3e c5 56 11 3f
       0.13190593 0.0 0.15791014 0.56773025

exp_avg_sq f4 [100]
000000 9a 66 a7 3c 5a 9d 7b 3b 00 00 00 00 e7 f8 83 3d
       0.020434666 0.003839335 0.0 0.06443959
000010 00 00 00 00 00 00 00 00 3a 7d 27 3b 91 cb 51 3e
       0.0 0.0 0.0025556819 0.2048781
000020 1c 7a 9a 3b 00 00 00 00 00 00 00 00 00 00 00 00
       0.0047142636 0.0 0.0 0.0
000030 00 df 91 3b 07 d0 1f 3d 00 00 00 00 01 0b e2 3c
       0.0044516325 0.03901675 0.0 0.027593138
000040 78 43 d1 3d 00 00 00 00 5e e7 1e 3c 00 00 00 00
       0.10217947 0.0 0.009698717 0.0
000050 00 00 00 00 00 00 00 00 52 4b 55 3d 00 00 00 00
       0.0 0.0 0.052073784 0.0
000060 00 00 00 00 00 00 00 00 c8 79 c3 3d 00 00 00 00
       0.0 0.0 0.09544712 0.0
000070 00 00 00 00 fe 79 14 3d 00 00 00 00 00 00 00 00
       0.0 0.036249153 0.0 0.0
000080 21 2b 05 3b b2 90 9f 3c 53 8f 0f 3e 00 00 00 00
       0.0020319896 0.019478176 0.14019518 0.0
000090 00 00 00 00 8d 2b de 3d fc 4a 9c 3e 64 0d 38 3c
       0.0 0.108481504 0.3052596 0.011233661
0000a0 00 00 00 00 17 e5 30 3b ed 7a f7 3d 52 44 a1 3b
       0.0 0.0026992017 0.12083993 0.0049214745
0000b0 b8 96 39 3a ae d9 3d 3e 00 00 00 00 00 00 00 00
       0.0007079649 0.1854007 0.0 0.0
0000c0 00 00 00 00 1f 61 29 3d 00 00 00 00 00 00 00 00
       0.0 0.041352388 0.0 0.0
0000d0 00 00 00 00 00 00 00 00 6a 7e 3f 3a 10 5f 34 3c
       0.0 0.0 0.0007304909 0.011008993
0000e0 27 60 10 3c 00 00 00 00 a5 4f 3d 3d 00 00 00 00
       0.008811987 0.0 0.046218533 0.0
0000f0 3b 41 59 3c 00 00 00 00 00 00 00 00 00 00 00 00
       0.013260181 0.0 0.0 0.0
000100 9c e2 1b 3d 00 00 00 00 00 00 00 00 5c 47 cc 3c
       0.03805791 0.0 0.0 0.02493637
000110 25 f7 cd 3d 00 00 00 00 00 00 00 00 5c 09 aa 3c
       0.10056905 0.0 0.0 0.020756416
000120 00 00 00 00 92 1c 31 3c 00 00 00 00 e2 98 80 3c
       0.0 0.010810034 0.0 0.0156979
000130 60 a3 14 3e 05 36 55 3e 00 00 00 00 28 23 7d 3b
       0.14515448 0.20821388 0.0 0.003862569
000140 00 00 00 00 43 33 a5 3c 00 00 00 00 00 00 00 00
       0.0 0.020166045 0.0 0.0
000150 00 00 00 00 00 00 00 00 33 2d 82 3d 00 00 00 00
       0.0 0.0 0.06356277 0.0
000160 00 00 00 00 33 7d 30 3d be 44 c2 3a ed 22 e9 3d
       0.0 0.04308815 0.0014821512 0.11383615
000170 82 c4 fb 3c 00 00 00 00 46 8f dd 3d d1 ab d2 3b
       0.03073335 0.0 0.10818343 0.0064291735
000180 16 c1 b9 3c 00 00 00 00 83 6a 5b 3c 6c 1a c6 3d
       0.022675078 0.0 0.013392094 0.09673008
